lightning_logs/version_10/checkpoints/epoch=9-step=18750.ckpt (torch, 225043 bytes, 6 tensors)

l1.weight f4 [64, 784]
000000 43 ef 10 3d 8d 8a 0f 3d 6a 30 fd bc 55 d0 9f bc
       0.035384428 0.03504424 -0.030906875 -0.01950852
000010 30 1b 3a bb 1e 4a 93 3c 6a 0f 67 bc 59 63 09 3d
       -0.0028397553 0.017979678 -0.014102796 0.03354201
000020 03 18 d5 bc a4 59 c1 bb de 1d c6 3c b8 5e 72 bc
       -0.026012426 -0.0059005786 0.024184164 -0.0147930905
000030 b9 b8 c2 3b 86 3d f1 ba 88 1a fe bc f7 19 b7 bc
       0.005942431 -0.0018405176 -0.03101851 -0.022351248
000040 1c 87 f4 bc 98 c0 b6 3c 69 16 05 3d 64 08 e3 bb
       -0.029849581 0.022308633 0.032492075 -0.0069284905
000050 00 b4 9a ba 64 5f 3b 3c 00 8e 95 bc e4 12 19 3c
       -0.0011802912 0.011436317 -0.018256187 0.009342883
000060 b0 7e 8a 3b 76 2f f3 3c 9a 45 8c 3c 1a 0a c9 bc
       0.004226528 0.029685717 0.017123032 -0.02454095
000070 f1 4f 0d 3d 0a 9e 81 3c 2a 89 d4 3c 06 91 a9 3c
       0.034500066 0.01582243 0.025944311 0.020699035
000080 1d 7f 8f 3b 65 82 df bc cb 70 ac 3c 22 72 45 bc
       0.0043791668 -0.027283857 0.021049878 -0.012051137
000090 60 d6 07 bd 76 2a e6 ba 13 c4 54 bc 68 47 82 3c
       -0.03316343 -0.0017560262 -0.012986201 0.01590319
0000a0 99 bc 10 3d e1 c4 c7 bc 5c e8 da 3c b1 0e 6b 3c
       0.03533611 -0.024385871 0.026722126 0.014346764
0000b0 87 b5 bc 3c c9 36 00 bd 34 68 2f bb 40 db c8 bc
       0.023035778 -0.031302247 -0.002676499 -0.024518609
0000c0 9f 8c 1b 3c 25 50 65 bc ef e8 35 3c 5e 9b 9a 3b
       0.009493976 -0.013996159 0.011102899 0.0047182282
0000d0 10 38 b7 3b 5c d1 c2 bc f2 4f 81 3c a6 a6 3a bc
       0.0055914 -0.023781471 0.015785191 -0.011392271
0000e0 a0 5c 3d 3b c8 ca e3 bc cb 5f ed 3c 40 84 90 bc
       0.002889432 -0.027806655 0.028976342 -0.017641187
0000f0 27 b6 07 bc 97 4e d2 bc da 31 af 3c 5e 46 b0 bc
       -0.008283175 -0.02567224 0.021386076 -0.021517929
000100 bf 64 c8 3c 28 7e 14 3d 5f 98 91 3c c1 8b 69 3c
       0.024462102 0.036253124 0.017772852 0.014254511
000110 4a f6 1c 3d 73 f3 9e 3c 32 67 99 bb c9 54 20 3d
       0.038320817 0.019403195 -0.0046814913 0.039143357
000120 8b 59 18 3c 99 35 1c bc 5b be b4 bc ba 33 88 bb
       0.009298692 -0.009534263 -0.022063425 -0.004156557
000130 54 dd af bb fb 95 45 3c ef 19 f5 bc ba a4 09 3d
       -0.0053669605 0.012059684 -0.029919593 0.03360436
000140 4c 90 0a bd 3b 99 1e bb 8c 1f 81 3c a2 85 ac 3c
       -0.03382902 -0.002420022 0.015762113 0.021059815
000150 80 70 59 bb 25 8c f4 bc 0a 57 b6 bc 09 41 28 3c
       -0.0033178627 -0.029851982 -0.0222583 0.010269412
000160 54 2f 85 bc 3a 0d f5 bc d5 27 da 3c fe 81 ff 3b
       -0.01625792 -0.029913533 0.026630322 0.0077974787
000170 c4 46 7d 3c ce 69 94 bc e9 25 19 bd 09 44 0f 3b
       0.015458766 -0.018116858 -0.03738967 0.002186062
000180 46 7c 52 bd ee 2e c2 bb 3f 18 2a bc 24 d2 8e bc
       -0.051388048 -0.0059260046 -0.010381757 -0.017434187
000190 44 e1 88 3b 9e f3 59 bc 00 82 64 bc 06 f7 3a 3d
       0.0041772444 -0.013302712 -0.01394701 0.045645736
0001a0 1a 2d 8f 3c 32 1e 1f 3d ed db 43 3d 95 b5 85 bc
       0.01747756 0.038847156 0.04781716 -0.016321937
0001b0 f0 e4 d4 3b dc 81 05 bd 25 7d a1 3b 1e 67 8d bc
       0.006497018 -0.032594547 0.0049282485 -0.017261084
0001c0 2c c4 e3 bc 79 ce c6 ba 78 4e 0c bb ee a6 c0 bc
       -0.027803503 -0.0015167735 -0.0021409076 -0.023517098
0001d0 c6 db 04 bd 86 13 d8 3c 3d a8 1d bd 88 d0 1d bd
       -0.032436155 0.026376497 -0.038490523 -0.03852895
0001e0 66 9f 91 bc 47 3c 70 bd da c1 0d bd eb 3d 25 bd
       -0.017776202 -0.058651235 -0.0346087 -0.040342253
0001f0 85 8f 97 bd cd 10 ee bc e8 18 9b bd bf 8a d8 bb
       -0.07400421 -0.029060746 -0.0757311 -0.0066083367
000200 2b cd 89 bc dd f6 b5 bb db 55 87 bc e7 4f d6 ba
       -0.016821465 -0.00555311 -0.016520431 -0.0016350717
000210 cd 30 e3 3c e9 c3 e0 3b 1c d9 22 bb f0 7e 89 3d
       0.027733231 0.006859292 -0.0024848646 0.067136645
000220 bc 43 91 bc bd df 12 3d f8 ba ee bb ce bf 55 3c
       -0.017732494 0.035857905 -0.007285472 0.013046218
000230 ce b9 ff 3c 8a f9 07 bd 20 a7 c7 bb 2e b3 dc 3a
       0.031216528 -0.033196963 -0.006092921 0.0016838068
000240 bb 17 1e bd 19 66 27 3b ef 4e 6b bd 98 c0 05 bd
       -0.03859685 0.0025543033 -0.057448324 -0.032654375
000250 6a 61 78 3a 0f 75 bf bc 80 64 8e bc 18 0c 96 bd
       0.0009474965 -0.023371248 -0.017381907 -0.073265254
000260 66 0d 86 bc ae c1 7d bd 98 ad 09 bc 71 1d 55 bd
       -0.01636381 -0.061952285 -0.008403204 -0.05203003
000270 66 0b 8b bd bc d5 9b bd ef 1e 1b bc a0 38 94 bc
       -0.067892835 -0.07609126 -0.009467824 -0.018093407
000280 a7 cb 87 bc 1e a8 a9 ba de ac 95 3d f8 13 73 3d
       -0.016576601 -0.001294378 0.073083624 0.059345216
000290 9b 2d 27 3d 64 27 33 bb b4 17 27 bb 82 d3 0b bc
       0.040814977 -0.002733671 -0.0025496306 -0.008534314
0002a0 8e 29 3c bc 4e a3 e7 bc 79 75 4d bb b6 2d 27 3c
       -0.011484517 -0.028276112 -0.0031350537 0.010203769
0002b0 e4 d8 17 bd 4a 70 6a bc e9 49 58 bd 8c 5f 1c bd
       -0.037072077 -0.014308998 -0.05280486 -0.038177058
0002c0 73 9c bc bc b2 02 29 3c 11 c3 12 bd e2 89 7f 3c
       -0.02302382 0.010315584 -0.03583056 0.015596839
0002d0 bf 26 41 3c 70 28 82 bd 54 bd 84 bc 64 8c 87 bd
       0.011789023 -0.06355369 -0.01620356 -0.06618574
0002e0 4e cc 81 bd ac 01 a7 bd f0 3e d6 bd db 02 8f 3a
       -0.06337796 -0.08154616 -0.10461223 0.0010910885
0002f0 db 6b 9d 3b b5 23 3c 3a 91 19 86 3d 4d 6c c9 3d
       0.004804117 0.00071769516 0.06547845 0.0983511
000300 35 8e 56 3d 57 0d a9 3a f1 1b f9 3c 44 c8 64 bc
       0.052381713 0.0012897652 0.030408831 -0.013963763
000310 47 19 fd bb d2 7f de 3c 9e 17 c8 bc 64 11 30 3c
       -0.0077239606 0.027160559 -0.024425324 0.010746334
000320 30 bd 56 bd 54 9f 59 ba 58 6b 63 bd 40 0f c9 bc
       -0.052426517 -0.0008301635 -0.055522293 -0.024543405
000330 1b 05 b2 3c 9e 58 d4 3c a7 b3 0b 3d 39 ff f0 ba
       0.02173095 0.025921162 0.034106877 -0.0018386609
000340 56 e4 97 bc 49 9f 98 bd 9e 3e ba bc 40 ff 70 bc
       -0.018541496 -0.07452256 -0.022734936 -0.014709294
000350 2c c6 37 bd 63 6c 89 ba aa 20 e2 bc 37 3a 0b bd
       -0.044866726 -0.0010484572 -0.027603466 -0.033991065
000360 b4 55 94 bc 32 8d 0f 3d 6a 1f 55 3d 79 b0 a2 3d
       -0.018107273 0.035046764 0.052031912 0.07943816
000370 c7 41 3f 3d fa cb c9 3b d8 18 66 3c be 93 d8 bc
       0.04669359 0.006158349 0.014044009 -0.026437636
000380 7a c8 b1 3b e2 90 50 3b cd cf b6 3c 65 9b 9f bc
       0.00542551 0.0031824638 0.022315884 -0.019483278
000390 bc 25 56 bb 31 c7 37 bc 15 a1 c7 bc 18 db 45 3b
       -0.00326763 -0.0112169245 -0.024368802 0.0030190405
0003a0 4e 60 b7 3c 22 f1 37 3d 5d 32 3f 3c 12 ec b3 3c
       0.022384789 0.044907697 0.011669722 0.021963153
0003b0 0d e4 07 bc 40 9e 0c bd dc 1b 30 bd be 30 0d bd
       -0.008294118 -0.034330606 -0.04299532 -0.034470312
0003c0 a1 70 b6 bc 0e 2f 07 bc 5c 27 bb bc 22 52 a9 bc
       -0.022270503 -0.008250965 -0.022845916 -0.020669047
0003d0 03 f1 12 bb d8 ec 2f 3d 38 14 03 3d 1a 63 bc 3d
       -0.0022421486 0.04295048 0.032001704 0.091985896
0003e0 2b c7 c1 3d f6 3d 4f 3d 80 bd 2e bc c7 9c ca 3c
       0.094618164 0.0505962 -0.0106652975 0.02473296
0003f0 cc a4 85 bc 25 f0 28 bb 68 36 41 3c 49 16 4b bc
       -0.016313933 -0.0025777903 0.011792757 -0.01239545

l1.bias f4 [64]
000000 fa fa 23 3e 00 4d 02 3e 64 58 bd 3c 68 57 83 3d
       0.16013709 0.12724686 0.023113437 0.06413156
000010 c0 12 c9 3d f2 eb d1 3c 92 3a c9 bc b5 73 c7 bd
       0.098180294 0.025625203 -0.024564061 -0.09738866
000020 e9 fc df 3d 6f e3 22 bd 35 33 5c 3e 65 0c 1a 3e
       0.10936911 -0.03976768 0.21503909 0.1504379
000030 46 f8 c7 3c 94 cf 05 bb 5b 52 5f 3d 48 c3 ca 3d
       0.024410378 -0.0020417916 0.0545219 0.09900528
000040 e4 9c 9d ba 72 59 a2 3d 91 25 89 3d 6d f5 b1 bd
       -0.0012024906 0.079272166 0.06696618 -0.086893894
000050 25 6f 93 bb b2 e9 1e 3d a4 f2 9b 3c 2b 05 77 3c
       -0.0044993334 0.038797088 0.019036599 0.015076916
000060 55 6d 24 bc 8e d2 11 bd 85 5a 41 3d b3 a0 0b 3d
       -0.010035832 -0.03560119 0.047205467 0.0340888
000070 95 ee ec bd d0 77 1e bd 91 31 72 3c c7 df 5b bd
       -0.115689434 -0.03868848 0.014782325 -0.053680208
000080 80 1d 04 bd 53 65 a2 3d 2c 9d 5c 3d 23 f2 61 bd
       -0.032254696 0.07929482 0.05386083 -0.05516256
000090 32 eb 9b bc c6 92 07 bc 83 3f 13 bd b7 af 90 3d
       -0.019033048 -0.00827474 -0.03594924 0.07064765
0000a0 db af 26 3e 77 a3 d6 3c 71 ac 9f 3d c4 bf e6 3c
       0.16278021 0.026200993 0.077965625 0.028167613
0000b0 9a 35 86 3d 30 10 09 3d 07 79 f0 3d 25 bc bc 3a
       0.065531924 0.033462703 0.11741834 0.0014399333
0000c0 f3 94 85 bd 0d 89 47 3c 70 22 c3 bc 1c 06 d1 3d
       -0.065225504 0.012178672 -0.023820132 0.102062434
0000d0 ba 0b 0f 3d a3 cd ce 3c 8e d3 97 3c cc bd f4 bd
       0.034923293 0.02524454 0.018533494 -0.119502634
0000e0 8e 00 8b 3d 05 87 f4 bc 6a 66 30 3d 59 26 4e bd
       0.06787215 -0.029849539 0.04306642 -0.05032954
0000f0 46 b6 fb bc fa 7c 1c 3d 88 4a 76 bd 79 b9 ba bc
       -0.030726563 0.038205124 -0.060129672 -0.022793518

l2.weight f4 [64, 64]
000000 9d 58 9b bd ff fc a2 3c d8 53 7a bd b4 39 d6 bc
       -0.07585261 0.019896029 -0.061115116 -0.026150562
000010 de 7e d8 3d a0 b8 39 3d b7 e0 d2 3d 2f b0 c3 ba
       0.10571073 0.045342088 0.10296767 -0.0014929826
000020 63 15 d8 bc 5c f5 30 bb 8b 48 5f bd 61 a6 31 bc
       -0.026377385 -0.0027001714 -0.05451254 -0.0108428905
000030 a5 90 7e bd 70 44 58 3d 43 de 01 3e 1d 2e da bc
       -0.062149663 0.052799642 0.12682442 -0.026633317
000040 99 c5 5a 3d ca 03 80 3d 26 71 ee bd ef 72 36 bd
       0.0534111 0.06250723 -0.11642675 -0.044543203
000050 83 61 b3 bd 58 48 97 bd 37 de 0d be bb fd 83 bb
       -0.08758833 -0.07386845 -0.138543 -0.0040280498
000060 59 ac c5 bd 28 53 f2 bd 62 20 22 3b 5b 01 68 bd
       -0.09652013 -0.11832267 0.002473854 -0.056641918
000070 97 7f 0c 3d 17 42 0d 3d 41 ad 29 bd 81 e4 ea 3c
       0.034301367 0.034486856 -0.041424993 0.028673412
000080 15 91 07 bc eb 90 ff 3d 9b b4 13 bc 5a af 17 be
       -0.008274336 0.12478813 -0.009015228 -0.14812985
000090 65 d6 82 bc b9 ff d6 3d d1 bb 55 3d 1a 0c 37 bd
       -0.015971372 0.10497994 0.05218107 -0.044689275
0000a0 1f 25 8a 3d 3b f2 9e bd b6 8c 09 be 1a 17 21 3d
       0.067453615 -0.077610455 -0.13432583 0.039328672
0000b0 9d 26 f7 3c d8 49 9f bd cc 92 18 3e 51 a2 14 3d
       0.03016978 -0.077777565 0.14899749 0.03628761
0000c0 f7 ae 03 3d 7c c2 d9 bd eb e0 29 bd 53 e1 fb bc
       0.03214928 -0.10632798 -0.041474264 -0.030747091
0000d0 48 bf a4 3d 45 86 1c 3e e0 58 f7 bc 0a b0 0a 3e
       0.080442965 0.15285595 -0.030193746 0.13543716
0000e0 79 7e a8 3d 7e 0c 28 3e 79 fc 13 3e c8 af 53 3d
       0.08227248 0.16411015 0.1445178 0.05168131
0000f0 a4 c0 a7 bd 90 86 a6 3d 0a 98 0a 3d 3b 94 23 bc
       -0.0819104 0.081311345 0.033836402 -0.009984071
000100 ae 10 65 3b a3 2c d2 3d 9f 3b b3 3d dd a4 46 3d
       0.0034952569 0.1026242 0.08751606 0.04849707
000110 10 20 8e 3b 72 f6 25 3c fd 8f 31 bd 0d 18 e0 3d
       0.0043373182 0.010129558 -0.04335021 0.10942087
000120 47 63 3f bd 12 67 90 3d 9f 5e bf bc d3 f4 b8 3d
       -0.046725538 0.07050909 -0.023360549 0.090310715
000130 68 06 a3 3d 1c 49 84 bd f1 5e b2 bd f3 ad ce bb
       0.07960206 -0.06459257 -0.08709515 -0.0063073575
000140 40 96 d8 3d d2 be d7 bb 96 c5 7b 3d 3a c7 c0 bd
       0.10575533 -0.006584027 0.06146773 -0.094129995
000150 9e d4 4a 3c 0e 3b f8 bd dc 0a 06 3d a0 17 cb bd
       0.012379793 -0.12120639 0.0327252 -0.099166155
000160 b6 92 a4 3d 65 18 5e 3d b5 b5 a1 bb 40 62 e6 bd
       0.080357954 0.054222483 -0.0049349912 -0.112492085
000170 73 80 09 3d b1 8c 2d bd 0b 14 d5 3b d6 e0 81 bd
       0.033569764 -0.042370502 0.0065026334 -0.06341712
000180 59 a9 e9 3a 78 21 d4 bd 54 21 96 3d fa 3e 96 3d
       0.0017826959 -0.10357946 0.073305756 0.073362306
000190 e4 96 9b bd 40 6f b9 3d 4c 9f 4f bd 6e 4d c0 3c
       -0.075971395 0.090544224 -0.050689027 0.023474421
0001a0 84 7b 74 3d e5 93 c4 bd 97 c1 d5 bc e2 56 13 bd
       0.059688106 -0.09598521 -0.026093287 -0.03597153
0001b0 76 59 27 3d 84 c0 15 3c 2c 39 db bc 1c f0 05 3d
       0.0408568 0.009140138 -0.02676066 0.03269969
0001c0 d4 44 ad bd 71 75 60 3c a8 af db 3d 43 8b d6 3d
       -0.084603935 0.013699875 0.10726863 0.10475781
0001d0 5b 42 83 bd be c1 ff bd d6 6d 95 bd 05 1c 89 bd
       -0.06409141 -0.12488125 -0.0729634 -0.066947974
0001e0 ca 68 93 bd 96 53 ce 3d f9 d3 a2 bd e5 70 98 bc
       -0.07197721 0.100745365 -0.07950587 -0.01860852
0001f0 14 a8 d5 3b a6 50 e8 bc f3 b9 83 3d ac 0e aa 3d
       0.0065202806 -0.028358769 0.064319514 0.0830358
000200 13 59 19 3d 7a 1a 9c 3d 6e 95 26 3d 4c 24 f0 3d
       0.037438463 0.076222375 0.04066985 0.11725673
000210 a5 63 95 3d 15 48 01 3d c8 a3 bc 3d c0 f6 ff bd
       0.07294396 0.031562883 0.09210926 -0.12498236
000220 ef ad 49 3d 0f ab 95 3b e0 04 45 3c 0b d3 bf 3d
       0.04923814 0.004567511 0.012025088 0.09366425
000230 02 47 40 ba d2 1c 76 bd 80 34 c0 bd 42 7d c1 3d
       -0.00073348 -0.06008608 -0.093850136 0.09447719
000240 33 31 c8 3d d2 25 b9 bc b3 60 82 bd ba e9 73 3d
       0.09775009 -0.022601042 -0.063661 0.05954907
000250 d6 a5 9b 3d 6e a1 fa bc 48 00 b8 bd 89 fb f3 3a
       0.0759999 -0.030594554 -0.08984429 0.0018614392
000260 cd b9 e7 bd 4f 4c 90 bd 47 11 b9 bd 4b 98 eb bd
       -0.113147356 -0.07045805 -0.090364985 -0.11503657
000270 c5 9e b7 3c d2 94 4a 3c 8b 21 4b 3d 8f cf 9a bd
       0.022414574 0.012364583 0.049592536 -0.0755912
000280 eb 4c 2a bd cd c1 9c 3d a5 7d cc bd fa d0 be 3d
       -0.04157726 0.07654152 -0.09984902 0.09317203
000290 b9 25 94 3d b5 83 82 bd 89 ed 46 bc 88 88 1a bd
       0.072337575 -0.063727774 -0.012141594 -0.037727863
0002a0 b3 d1 3e 3d 29 4a a0 bc 68 bb 47 bc 74 1f d9 bd
       0.046586704 -0.019566612 -0.012190677 -0.10601702
0002b0 98 14 da bd 9c fe ee 3d 4f 8d ea bd 62 bf 29 bd
       -0.10648459 0.11669657 -0.11452734 -0.041442282
0002c0 0c 9b 43 3b b0 fc 66 3d 67 a5 c2 3d b5 8b ad bd
       0.0029847054 0.056393325 0.09504204 -0.084739126
0002d0 43 e6 ca bd 81 ff e7 bd 39 12 ff 3d 55 cb 44 3d
       -0.099072 -0.113280304 0.124546476 0.048045475
0002e0 16 5a 83 3c 3d a6 3c bd 51 92 2d bd a4 f3 4c bc
       0.016034167 -0.046056975 -0.042375866 -0.01250926
0002f0 b2 e5 70 3d e1 e6 ea 3c 7b a9 80 3d 3b 2f d2 3d
       0.058812805 0.028674545 0.06282326 0.10262915
000300 87 35 a1 bd 2d 2f 67 3e 9f 41 85 bd f1 73 5b 3e
       -0.07871538 0.2257659 -0.06506657 0.21430947
000310 5e 87 8c 3d dc 9e 95 3d 92 01 58 3d 62 ab 2b 3c
       0.06861757 0.07305691 0.052735873 0.010477873
000320 45 58 9a be da 2b 8d bd cb ba 8c 3e 0a 68 ab 3e
       -0.3014547 -0.0689313 0.27486262 0.33477813
000330 cb 67 b7 bd 76 26 a6 3d dc 6f cb bd 36 c1 90 3e
       -0.08955344 0.081128046 -0.09933445 0.28272408
000340 9d 7f c6 3c cf 39 b4 bc 72 7c 67 3d 55 1d 80 bd
       0.024230773 -0.022000222 0.056515165 -0.06255595
000350 93 2d 08 3d 0b 59 3f be 9a 5f 28 bd 1c 60 ee 3d
       0.033246588 -0.18686311 -0.041106798 0.11639425
000360 69 4e 35 bd 69 47 4c be 66 aa 6c bd c5 d5 31 be
       -0.04426423 -0.19949116 -0.057779692 -0.17366703
000370 d7 f6 72 be 7b 4c 40 bd 32 23 39 bd a9 4b 47 3e
       -0.23726974 -0.046947937 -0.04519958 0.19462456
000380 6a be 87 be 60 bc ef bd a0 62 ca bd 66 f9 92 bd
       -0.26512462 -0.117058516 -0.098820925 -0.07176475
000390 8c 5f 83 3d 44 73 23 be c7 6b 7e 3e e7 04 e1 3d
       0.064147085 -0.15961939 0.24845801 0.10987263
0003a0 76 60 18 3e 23 45 a4 bd e2 b5 e8 3d af b2 8a bd
       0.14880547 -0.08020999 0.113628164 -0.067723624
0003b0 7a 34 10 3d 18 ae 13 3e 77 8a 59 3d 54 65 13 3e
       0.035206296 0.1442188 0.053110566 0.14394122
0003c0 56 d7 e9 bd fb b5 f9 3d 5f a9 cc 3d 21 26 22 3a
       -0.11418025 0.12192913 0.099932425 0.0006185491
0003d0 25 2b 50 3d 19 07 90 bd 09 be 71 3d e1 3f 46 be
       0.050822396 -0.07032604 0.059019122 -0.19360305
0003e0 95 53 56 3d 77 49 02 3e 07 84 b3 bd 87 01 55 3c
       0.052325804 0.12723337 -0.087654166 0.013000852
0003f0 27 69 81 be a1 1f a3 3c b6 70 45 3e e1 77 d2 bd
       -0.25275537 0.019912543 0.19281277 -0.10276771

l2.bias f4 [64]
000000 f1 02 c5 3d 5c eb 94 bd af f1 8c b9 e2 34 2b 3e
       0.09619702 -0.07271454 -0.0002688295 0.16719392
000010 8d 32 87 bd 23 de 9f 3d 7f 4e c8 bd 62 cd 7d bc
       -0.06601439 0.07806041 -0.09780597 -0.015490862
000020 db f4 e7 3d 33 4d c9 bd 61 21 36 bd fa ce c2 3b
       0.11325999 -0.09829178 -0.044465426 0.0059450837
000030 80 f1 da bd 03 9c ec bc e6 d6 12 3e d4 30 c3 bd
       -0.10690594 -0.028882986 0.1433979 -0.095307976
000040 88 bf 34 3d df 2c 6e 3e 4c f5 fc bd 94 64 1f 3e
       0.04412797 0.23259304 -0.12351474 0.15565711
000050 39 b2 d3 bd 2c 8b 93 3c e9 7f 21 bd e1 fc 88 bc
       -0.10336728 0.018010698 -0.039428625 -0.016722145
000060 72 cf 42 3e cf 0f 0a 3d b8 db 95 3d 52 5b 10 3d
       0.19024447 0.033706482 0.07317299 0.03524334
000070 96 4f d7 bd be 6e 06 3e 34 64 41 3e d3 c9 0a 3e
       -0.10513227 0.13128182 0.1888588 0.13553552
000080 38 15 31 bd fd 35 81 3e 05 91 ea bd f7 15 a4 3d
       -0.043233126 0.25236502 -0.114534415 0.08012002
000090 b4 69 02 bd 64 ed ab 3c 3a 78 5e bb 4e 26 2a bd
       -0.031839088 0.02098722 -0.0033946172 -0.041540436
0000a0 a4 08 59 3e 66 2d c6 bc fa 9d 3b 3d 40 8c 0f 3d
       0.21194702 -0.02419157 0.045804955 0.035045862
0000b0 de 43 b2 3d 57 8e d5 bd 88 9e 08 3e 87 05 5f 3e
       0.08704351 -0.1042754 0.13341725 0.21779452
0000c0 f2 af 4f 3d 3e 8f ef bc 5d f1 fb 3c 12 da de 3d
       0.050704904 -0.029243108 0.03075474 0.10881437
0000d0 1c b6 ba bc 1d 5c 45 3e bf c8 75 3e 86 f3 89 bc
       -0.022791915 0.1927342 0.2400236 -0.016839754
0000e0 51 42 cc 3d 82 27 c7 bd 65 66 aa bd 74 7f 52 bd
       0.09973586 -0.097243324 -0.083203115 -0.05139108
0000f0 1d 8c 8b 3e 85 dd b9 3c 47 22 61 3e d6 54 f1 bd
       0.27255335 0.022688637 0.21985732 -0.11783759

l3.weight f4 [10, 64]
000000 85 a9 fe bd 7b c8 4a bd 91 db 0d bd 80 68 50 be
       -0.12434677 -0.0495076 -0.034633223 -0.20352364
000010 3e 17 19 bc 24 65 48 be c5 01 f9 3b 52 e7 d2 bc
       -0.00934392 -0.19569832 0.007599088 -0.025745068
000020 0d be b6 be 75 bf bd bd 98 30 d6 3d b1 33 f5 3d
       -0.35691872 -0.09265033 0.10458487 0.1197275
000030 97 05 d6 3d 14 a8 2c 3d dd 13 c4 be ee dc 20 bc
       0.10450285 0.04215248 -0.38296404 -0.009818299
000040 1b ca 04 3e 44 6b bc bd 13 20 8e bd 0d 90 9f be
       0.12967722 -0.09200147 -0.069397114 -0.3116459
000050 6e 49 32 bd a7 ad 7a 3d e9 b5 dc bd be 91 8b be
       -0.04352706 0.061200764 -0.10776884 -0.2725963
000060 50 fd 35 bc 58 9e c0 3d 40 ea 3e bb 08 3c 41 3e
       -0.011107758 0.09405202 -0.0029131323 0.18870556
000070 72 0a b2 bd 28 a3 41 bc 2d cd b8 3e 2e 16 fc 3e
       -0.086933985 -0.011818685 0.36094037 0.49235672
000080 9b 35 cd 3c ca aa 4e be ec a3 af bd 00 12 d8 3d
       0.025049975 -0.20182338 -0.085761875 0.10550308
000090 69 c3 a7 bd bd 2f 5e be 5a 6b 43 3e 45 3a be 3c
       -0.081915684 -0.21697898 0.1908392 0.023221144
0000a0 f9 71 d8 bd 0c f4 98 3e d9 f2 84 be 98 7d aa be
       -0.105686136 0.29873693 -0.25966528 -0.33298945
0000b0 4d d0 12 3f ab ff 44 bd 74 54 ef bd 0d 61 e4 be
       0.5734909 -0.048095386 -0.1168603 -0.44605294
0000c0 fb 9c cb be 0f 71 6a 3d 69 e1 3f 3e 26 85 81 bd
       -0.39768204 0.057236727 0.18738331 -0.06324224
0000d0 ec 4c a9 3d 8c b3 8c 3e 27 4b 18 be a8 df ed 3d
       0.08266625 0.27480733 -0.14872418 0.11614925
0000e0 06 03 06 bd a0 46 81 3c 70 c0 97 3e 99 4e 6a be
       -0.032717727 0.015780747 0.29639006 -0.22881545
0000f0 99 50 ad be 3f 00 7b 3d f4 53 f8 3e 11 af 60 3e
       -0.33850554 0.06127953 0.4850155 0.21941783
000100 4f 1e 47 bc 56 5e 49 bd bd e0 54 bd fe 54 0c bd
       -0.012153222 -0.04916223 -0.05197214 -0.034260742
000110 7e f4 5d 3e 02 74 19 be 50 19 83 bc 77 d0 f6 bd
       0.21675298 -0.1498566 -0.01600328 -0.1205148
000120 d6 e9 e8 3e 4f be 9a bb 8e 16 c2 3d 82 d9 ac bb
       0.45490903 -0.0047223936 0.09476958 -0.0052749524
000130 2a 50 8b bd c2 27 f0 3d b5 2d 75 be e0 b9 94 bd
       -0.068023995 0.11726333 -0.23943217 -0.07262015
000140 85 a2 8c be 75 13 b2 be 65 40 f6 3b 3e 76 14 3e
       -0.27467743 -0.3478047 0.0075150006 0.14498231
000150 6d 13 e0 3d 6b e1 43 be ac 5d ee 3d a4 40 81 3d
       0.10941205 -0.19128959 0.1163896 0.06311157
000160 aa 5f 85 bd e2 d4 2f be d1 a0 5f be 68 1a 83 be
       -0.06512387 -0.17171052 -0.2183869 -0.25606084
000170 e3 2a a8 be c5 2d a3 be 53 77 84 be c5 bc 7b be
       -0.3284522 -0.31870857 -0.25872287 -0.24583729
000180 42 f6 26 be 9c d1 ac 3e 4a ee 24 bd 26 9e ff bd
       -0.16304877 0.3375367 -0.040266313 -0.12481336
000190 1d ed 76 be c8 1e 4e be 60 a8 87 bd be db a4 3e
       -0.24113889 -0.2012893 -0.06623912 0.321989
0001a0 36 1a 18 3f b2 f6 9d be 85 43 87 3e 25 62 82 3e
       0.59414995 -0.30852276 0.264187 0.25465503
0001b0 53 22 2c be ec 3d 57 3c 3a 14 6f 3e 75 78 b1 3e
       -0.16809969 0.013137322 0.2334756 0.34662214
0001c0 6a 8c b6 3e b1 e3 4c be a2 b5 99 be d3 1c e5 bd
       0.35654002 -0.20008732 -0.30021387 -0.111871384
0001d0 c8 ae 83 be 73 91 80 3e df 97 59 be 0e 87 92 be
       -0.25719285 0.2511097 -0.2124934 -0.28618664
0001e0 b8 e3 63 be 82 86 02 be 5e 51 0d bf b1 98 6b bd
       -0.22254837 -0.12746623 -0.5520228 -0.057518665
0001f0 6a b2 a6 3e 74 10 d5 bd b4 64 ec bd 14 87 4d bd
       0.32557994 -0.10403529 -0.11542645 -0.05017765
000200 be 36 45 3d 60 69 b8 bd 92 6b 97 3d eb 90 14 be
       0.04814791 -0.09004474 0.07393564 -0.14508407
000210 85 78 11 3e 70 54 5a 3d 34 67 1f 3c a0 ef c1 bd
       0.14206131 0.053303182 0.009729195 -0.09469533
000220 cf bf fa 3d 8d a3 29 3d 0c e2 f2 3c 61 9e ec 3d
       0.12243616 0.04141574 0.029648803 0.11553646
000230 82 67 02 be d7 02 d6 bd 71 06 a4 be 27 69 86 be
       -0.12734798 -0.104497604 -0.32036164 -0.262521
000240 f2 99 08 be c8 a8 c6 bd 7f 96 d3 3d 95 1e 73 3d
       -0.13339975 -0.09700161 0.10331439 0.059355337
000250 0f 86 61 bc 7f 2c 37 3d a9 d2 6e bd 7d 4f d7 3c
       -0.013764872 0.04472017 -0.05830637 0.02628302
000260 b8 cc 5e 3e 75 d7 8e 3e 84 47 fb be 22 1d 19 3f
       0.21757782 0.27898756 -0.49078 0.5981008
000270 02 92 c1 3e 95 42 97 be 5f 06 e7 bd 31 0b df be
       0.37806708 -0.29542986 -0.11280512 -0.43563226
000280 71 15 44 3d e0 73 7e be 7b 9c 80 bd 74 d2 76 3d
       0.04787201 -0.2484889 -0.06279846 0.060259297
000290 5f 2f 42 3e fc 9f c6 3e 48 a8 45 be cc 47 4d 3b
       0.18963383 0.38793933 -0.19302475 0.0031323312
0002a0 02 ba 5f bc 0c 52 ed 3b 3a 5d d7 bd e5 37 fe bd
       -0.013655188 0.0072424468 -0.105158284 -0.12413005
0002b0 c7 8e bc 3e 3c 13 f1 3d d8 cc 24 3f bb 45 16 bc
       0.3682768 0.11771247 0.64375067 -0.0091718985
0002c0 fe bb 86 3e 41 a7 68 3e 8a 33 24 3e 6d 4e af be
       0.26315302 0.22720052 0.16035286 -0.34239522
0002d0 af 60 d2 3e 43 8c e6 bc dd bd 59 3d 36 34 6a be
       0.4108939 -0.028143054 0.053159583 -0.2287148
0002e0 6b 73 a5 3d 4f 13 f0 3d 05 ea 72 3e ca 18 a1 3e
       0.08078655 0.11722433 0.23722084 0.31464225
0002f0 65 6c ac be b7 ce aa bd b8 64 b3 3e df 3d 74 bb
       -0.33676448 -0.08340209 0.3503778 -0.0037268323
000300 09 90 54 3e ec 56 30 bb b4 c3 83 3c 51 da dd 3d
       0.2075807 -0.0026907278 0.01608453 0.10832656
000310 37 b8 77 be eb c2 95 be d8 de 1d 3c c5 59 ac bd
       -0.24191366 -0.29250273 0.00963565 -0.0841556
000320 e2 04 ac 3e 14 e9 ff 3b 56 52 00 3c c8 62 25 3d
       0.33597475 0.0078097675 0.00783213 0.04037741
000330 a7 f0 c7 bc 40 8b c2 bd 91 6f 95 bd 61 5f 05 3f
       -0.024406744 -0.09499216 -0.0729667 0.5209866
000340 00 01 20 be 65 f7 a4 be 8d 31 1f be 8f e1 95 3e
       -0.15625381 -0.32219997 -0.15546246 0.2927365
000350 ad a2 27 bd 44 76 7f bd 56 ae 1f bd 93 0c e1 3e
       -0.040926624 -0.062368646 -0.03898462 0.43954906
000360 c5 38 07 3e 6a 01 12 3d c7 59 3a be 70 28 90 3e
       0.1320525 0.03564588 -0.1819831 0.2815585
000370 b3 73 d9 3d df 06 71 bd 82 05 80 3e bc 2d 88 be
       0.10617771 -0.058844443 0.25004202 -0.26597393
000380 97 d9 4a be 7a ca 0e bf 00 2c a5 3d da 8f 36 bd
       -0.19809566 -0.55777705 0.08065033 -0.04457078
000390 99 3d 4e 3e e9 07 31 3e 38 cb 2b 3e b9 d9 dd 3c
       0.20140685 0.17288174 0.1677674 0.027081357
0003a0 ea 03 2f bb 90 dc 05 be 68 d2 00 3f 02 bc 46 bd
       -0.0026705214 -0.13072419 0.50321054 -0.048519142
0003b0 89 31 be 3d a7 c8 53 3d c5 ce a5 be 26 01 87 be
       0.09286792 0.05170503 -0.32384315 -0.26368064
0003c0 13 8c b9 3e 01 03 fe ba 50 e8 48 bc f4 72 6a bd
       0.3623968 -0.0019379557 -0.012262419 -0.057238534
0003d0 86 a5 97 3d d2 ef 2a 3e 28 09 a6 be 98 b9 7c 3d
       0.07404618 0.16693047 -0.3242886 0.061700433
0003e0 06 b7 45 3e 12 b2 91 bd 15 4e 11 be f8 58 13 be
       0.19308099 -0.07114042 -0.14189942 -0.14389408
0003f0 91 da bb 3e 47 44 3e 3d d1 b7 b0 be 8f a3 54 be
       0.3669019 0.046451833 -0.3451524 -0.20765518

l3.bias f4 [10]
000000 8f 75 28 bd c2 74 49 3e af 86 98 3d b5 63 29 bd
       -0.041127738 0.19673446 0.07447564 -0.041354854
000010 08 47 49 bc 94 c0 9b 3e 00 cc 19 3d bf 1d 4c 3e
       -0.012285002 0.30420363 0.037548065 0.19933222
000020 61 02 cf be 94 d3 d0 bd
       -0.40431502 -0.10196605
