lightning_logs/version_7/checkpoints/epoch=9-step=18750.ckpt (torch, 225043 bytes, 6 tensors)

l1.weight f4 [64, 784]
000000 6c a8 af bc 00 98 29 3a d0 93 38 3c f2 8d ca 3c
       -0.021442614 0.0006469488 0.01126571 0.024725888
000010 e4 4b 17 3c 53 5f 0c 3d ee 94 73 bc 06 ab f8 3c
       0.009234402 0.034270596 -0.014867051 0.030354988
000020 d0 f2 de bc d0 16 cd 3c 05 63 ae bc 02 f3 ff 3c
       -0.027215391 0.025035292 -0.02128745 0.031243805
000030 ed 53 70 3c 90 92 af bc aa e7 98 3c 4d d3 3e 3c
       0.014668447 -0.021432191 0.018665154 0.011647058
000040 d3 9d 9d bc a8 7d f1 bc 46 59 f1 3c ee 6d f2 3c
       -0.019240296 -0.029478863 0.029461514 0.029593434
000050 ca 6a 8c bc d0 fc 44 3c 21 fa e7 bc b8 1c 1e bc
       -0.017140765 0.012023166 -0.028317513 -0.009650402
000060 a7 42 05 bd c0 d4 83 3c d4 0d 8d 3c e2 39 fd 3c
       -0.032534268 0.016092658 0.017218508 0.03091139
000070 80 e1 4a bb 38 c8 c1 bc 8e a6 d1 bc 4e ff c5 bc
       -0.0030957162 -0.023655042 -0.025592115 -0.02416959
000080 81 6c e4 3c cd ae 05 bb 50 be 67 3c ab 05 40 bc
       0.02788377 -0.002039838 0.014144495 -0.011720101
000090 1e 13 9b 3c 5d 02 e9 3c af 17 f8 3c 52 92 a9 bc
       0.018930014 0.02844351 0.03028473 -0.020699654
0000a0 39 cb 6b bb 83 0f 16 3b db d1 4a 3c 24 cd f9 3c
       -0.0035979284 0.002289743 0.012379135 0.030493326
0000b0 01 c8 20 bc 35 e0 ee bc f2 97 c0 3a 9e 3f 4c 3c
       -0.00981331 -0.029159645 0.0014693721 0.012466339
0000c0 66 74 1b bc a2 5d 7a 3b 99 36 10 bd 14 97 ac bc
       -0.009488201 0.0038202782 -0.03520832 -0.021068133
0000d0 72 4e 68 bc 68 93 e1 3b 01 aa f7 bc 00 08 97 bc
       -0.014178859 0.0068840273 -0.030232431 -0.018436432
0000e0 2e fa e8 3c 5c 0f 57 bc 87 78 8a 3b 0d 25 c9 3c
       0.028439607 -0.013126221 0.0042257938 0.0245538
0000f0 1b 73 6e bc 16 f0 12 bc 05 81 b2 bc 06 98 e1 bc
       -0.0145538105 -0.008968374 -0.021790037 -0.02753831
000100 f2 fc 31 3c c1 96 b4 bc 72 fe 1d 3c 86 69 01 3d
       0.0108635295 -0.022044541 0.009643184 0.031594776
000110 d1 67 e2 3c d1 58 0b bd 61 43 47 bc ee bd 62 3c
       0.027637394 -0.03402025 -0.0121620605 0.013839228
000120 ce dd fa 3b a8 db ad bc 98 63 fd ba 10 81 8d 3a
       0.0076558357 -0.021222904 -0.0019332049 0.001079591
000130 ce 66 53 3a a2 45 b5 3c 20 5a b1 3c 3b c2 4e 3c
       0.00080643303 0.02212793 0.02164942 0.01261955
000140 25 ed 0c 3b ad c4 9c bb ee 72 67 bc e1 ae e6 bc
       0.0021503654 -0.004784188 -0.0141265225 -0.02815956
000150 e8 f7 da 3b 40 34 ea 3b 19 e9 dc 3c 6a 2c f6 3c
       0.0066823848 0.007147342 0.026966618 0.030050475
000160 c3 53 8d 3c 24 20 e2 3b 1e e7 a9 39 b6 91 f4 bc
       0.017251855 0.006900804 0.00032406388 -0.029854637
000170 17 b4 ae bb ce 53 a3 3c 4b 4f 0e 3d 1b 17 69 3d
       -0.005331527 0.019937422 0.03474359 0.0569068
000180 2d 63 90 3d 62 14 58 3d 22 bc f4 3c 66 ff b2 3c
       0.07050166 0.052753814 0.029874865 0.0218503
000190 d8 e3 3b 3b 4d b6 58 3c c1 1d 4c 3c 97 5b d8 bc
       0.002866974 0.013227058 0.012458266 -0.026410861
0001a0 6b ec 28 bd 22 36 cb bc 55 cd b0 bc 95 b5 0e 3c
       -0.04124109 -0.024806086 -0.021582285 0.008710285
0001b0 0f 67 0d bd e4 72 0d 3d c4 da 0a bd c0 47 7b bc
       -0.034522112 0.034533396 -0.033900037 -0.015336931
0001c0 b0 10 02 bd 2b 6e f4 3c ad 78 b6 bc 04 2a 2a 3c
       -0.031754196 0.029837688 -0.02227434 0.010385994
0001d0 5a bf 1d 3c 3a 70 4b bc f4 50 3d 3c d0 37 d7 3c
       0.009628141 -0.012416894 0.011554945 0.02627173
0001e0 81 81 7f 3d 40 7f 4e 3d 06 80 21 3d a4 41 ce 3d
       0.062379364 0.050414324 0.039428733 0.10071114
0001f0 87 15 10 3d bc e1 14 3d cd 2b da 3c e2 dc f2 3b
       0.03517678 0.03634809 0.026632214 0.007411585
000200 87 4b 23 3d 1c f1 4e 3d e8 79 11 3d 04 d4 db 3c
       0.03986695 0.05052291 0.03551665 0.026834495
000210 50 83 1d 3c 1e e5 70 bc 19 61 06 bd ed ab 1e 3c
       0.009613827 -0.014703063 -0.032807443 0.009684545
000220 63 40 37 bc 21 60 15 bd 2d 1a ea 3b 2b a3 c7 3c
       -0.011184785 -0.03646863 0.0071442337 0.024369797
000230 65 ea c8 bc 33 cb c0 bc 95 f0 a9 bc a2 bb 60 3b
       -0.02452583 -0.023534393 -0.020744601 0.0034291525
000240 df 68 1f 3d 82 d2 97 3c 68 3d 5e 3d bb 93 57 3d
       0.038918372 0.018532995 0.05425778 0.05263112
000250 cc aa 79 3d 3f 3c 56 3d 82 49 80 3c 69 28 44 3d
       0.0609539 0.05230355 0.015660051 0.0478901
000260 23 86 91 3c 37 8c b0 bc 6b a9 4a bc 1a da 0d 3d
       0.017764157 -0.021551235 -0.012369494 0.034631826
000270 8d c4 d5 3d e2 d7 a8 3d 41 2f b0 3d 57 5b c8 3c
       0.1043788 0.082443014 0.08602763 0.024457617
000280 7d a0 57 3d 4a 0a 6a 3c 74 97 ad 3c bf 92 18 3c
       0.052643288 0.01428468 0.021190383 0.009312331
000290 57 05 36 bc 82 68 e6 3a d4 e9 a8 3c 0b 69 81 3c
       -0.011109672 0.0017578753 0.02061931 0.015797159
0002a0 60 43 04 3c 37 50 42 3b 85 5c f7 3a b3 b2 b7 3c
       0.008072704 0.0029649863 0.0018872177 0.022424078
0002b0 54 b5 f8 ba b7 80 3e bb 31 46 8c 3d 88 17 61 ba
       -0.0018974938 -0.002906842 0.068493254 -0.0008586575
0002c0 a0 23 66 3c 86 46 43 3c 59 d6 b5 bc 3c 87 4d bd
       0.01404658 0.01191867 -0.022196935 -0.050177798
0002d0 82 05 4c bc 91 3f 17 3b 0d f5 e0 bb 3e 0a 5e 3d
       -0.012452485 0.002307866 -0.00686515 0.054208986
0002e0 77 00 a6 3c 40 ff 24 3c 2c b0 ee 3c 85 95 9c 3b
       0.020263894 0.010070622 0.02913674 0.0047785663
0002f0 a3 7c fb 3b 21 8a d3 bb fb 78 03 bc 28 c5 dd 3c
       0.00767477 -0.0064556752 -0.008024449 0.02707155
000300 78 9f 91 bc d0 60 6d 3c ad 97 d6 bc 00 7b 3f 3c
       -0.017776236 0.014488414 -0.026195372 0.01168704
000310 32 e1 4b 3c c8 97 ac 3c 3c 9d bc 39 a9 08 40 bb
       0.012443827 0.021068469 0.00035975303 -0.0029302037
000320 c7 d9 d1 3c 68 43 36 3d 47 20 af 3c 39 15 7b 3b
       0.02561654 0.044497877 0.021377696 0.003831221
000330 cf 22 52 3c 1c 4e 67 bc 7e 04 95 bc d6 af f2 bc
       0.012825682 -0.014117744 -0.018190619 -0.02962486
000340 c1 36 2f bd 4b 1b b5 3b 06 cc 6b 3d 7a 36 c5 3a
       -0.042776827 0.005526935 0.05756762 0.0015046143
000350 9a b6 ed bc 20 ff a2 37 34 f5 db 3c 85 52 9f bb
       -0.029017735 1.9430707e-05 0.02685032 -0.004862132
000360 c7 0d 16 3a 19 9f ff 3c d1 03 8a 3c 4e 26 0a bd
       0.0005724099 0.031203793 0.016847523 -0.033727936
000370 ab 6f 76 3c 32 84 15 bc 53 c1 73 3c f5 7e 0d bd
       0.015041272 -0.009125756 0.014877635 -0.034544904
000380 df 43 ed bc 11 fc 0a bd 3d 7b b8 3c 04 25 91 3c
       -0.028963028 -0.033931796 0.022519702 0.017717846
000390 4c c3 4a 3d d3 c5 04 3d 62 0a 14 3d 3f 0f c7 bc
       0.049502656 0.032415222 0.036142714 -0.024299262
0003a0 76 0f 9e bc d7 71 01 bd c5 e9 f6 b8 e2 25 52 bd
       -0.019294482 -0.031602707 -0.00011773737 -0.05130566
0003b0 2e ae 08 3d af 80 cc 3c 8b bd b3 3b 01 2d a9 3c
       0.033369236 0.024963705 0.0054852418 0.020651342
0003c0 57 71 cb 3b 9f 1a 37 3c b8 0f 2c 3d c9 42 49 3c
       0.0062085795 0.011175781 0.042007178 0.012283989
0003d0 95 69 71 3c 2b 7d 21 3d 6e 7e e0 3c 44 a6 28 3c
       0.014734645 0.03942601 0.027404036 0.010293547
0003e0 79 df 24 bd 91 41 06 bc b9 6c c5 bc 8e 85 f6 3c
       -0.040252183 -0.008194343 -0.024099695 0.03009298
0003f0 a2 d6 03 bd f2 97 16 bb 2a 08 3f 3c 8a d2 ba 3c
       -0.03218711 -0.002297875 0.011659661 0.022805471

l1.bias f4 [64]
000000 0d d2 c6 3c 7b d9 50 3c bd c0 91 3c 7b 2b 18 3d
       0.024270082 0.012747164 0.0177921 0.03715084
000010 ec d8 30 bd 98 ec 99 3d 15 45 bd bc 4e 16 3a 3d
       -0.043175623 0.0751583 -0.02310423 0.045431428
000020 35 3f 62 bc 4b 7c 7c 3d 1a 21 c7 bc 94 df be 3d
       -0.013809015 0.061641973 -0.024307776 0.09319988
000030 ff a5 19 3d b5 b4 38 3d 36 38 cf 3d 28 6d a9 3d
       0.03751182 0.04509421 0.10118143 0.08272773
000040 55 c8 3d bc 93 51 20 3d e3 dd c2 3b 31 49 c8 3d
       -0.011583407 0.039140295 0.005946861 0.09779585
000050 cc 29 b3 3c 48 06 24 3d 2a 3e aa 3d eb bd 4a 3d
       0.021870516 0.040045053 0.08312638 0.049497526
000060 01 34 91 bc ab 45 9d bb c9 3b 10 3c fb da 0d bd
       -0.017724993 -0.004799565 0.008803316 -0.034632664
000070 71 70 4e 3d 65 d6 ee 3c e4 04 e7 ba 01 0e 06 3b
       0.0504002 0.029154966 -0.0017625359 0.0020455124
000080 99 a4 98 bc 1a 50 fc 3d 8d 19 f7 3d 2f 99 b4 bc
       -0.018633174 0.12319966 0.1206542 -0.0220457
000090 31 0f aa bc df 3d 6f 3d 51 42 bc 3c df fc 01 bc
       -0.020759197 0.058408614 0.02298084 -0.007933824
0000a0 2f cb 66 bd b2 bb 20 3d 04 9c 39 3b 84 0d 23 bd
       -0.056346115 0.0392415 0.0028321752 -0.03980781
0000b0 48 39 2c bc 0b 91 1f 3d 7c 6a 4e 3d 03 c0 0e 3c
       -0.010511704 0.038956683 0.05039452 0.008712771
0000c0 c8 d3 96 3d 4c e6 82 bb b0 30 03 3e 3f 61 35 3d
       0.07364613 -0.0039947387 0.12811542 0.044282194
0000d0 26 84 bd 3d cf 2f 17 3d 9e dd cb 39 d3 5f 8f 3d
       0.09253721 0.03691083 0.00038884295 0.07000699
0000e0 a4 5f f8 bd 10 78 85 3c 4e 3b 68 3c 5a ad 85 bd
       -0.12127617 0.016292602 0.014174296 -0.06527205
0000f0 17 57 a9 3d 4c a7 8b 3d 7e c1 ee 3c b3 d5 47 3c
       0.08268564 0.06819019 0.029144999 0.012196946

l2.weight f4 [64, 64]
000000 25 0d 78 bc ab b6 14 3e 10 f4 4d 3e 48 cb 0f be
       -0.015139853 0.14522807 0.20112634 -0.1404239
000010 3c 05 51 3e 3e 72 b9 3c a1 d7 9c bd b6 fb dc bc
       0.20412153 0.022637483 -0.076583154 -0.026975494
000020 29 08 ef 3d 64 07 8d 3d 27 1e 06 3e 0f 55 6d 3d
       0.11671478 0.06886175 0.1309744 0.057942446
000030 7e de 92 3b d0 d9 2c bd 96 9c 86 3e 2e cb e1 bd
       0.0044820895 -0.04219991 0.2629134 -0.110250816
000040 5c eb b9 3d f5 bc 01 3e ca 4b 28 3d 51 b9 2f 3e
       0.09078094 0.12669738 0.041087903 0.17160536
000050 53 e7 ff bd da ca 09 bc d2 95 55 be 53 89 6e 3d
       -0.124952935 -0.00841018 -0.20857933 0.05823643
000060 f1 35 17 bd b6 4e 85 bd 31 42 57 3d b5 52 a8 3d
       -0.036916677 -0.065091535 0.05255336 0.082189
000070 1c c8 1f be fd 14 bf bd 9c d1 64 3d 19 fa ff bc
       -0.1560368 -0.09330175 0.05586396 -0.031247186
000080 24 51 9f 3d c0 ba e4 3d 33 6f 9e 3d 4d f9 84 3d
       0.07779148 0.11168432 0.07736053 0.06492863
000090 99 d8 cc 3d 98 4f 49 be f9 f5 cd 3d 71 e3 49 bd
       0.1000225 -0.19659269 0.10056681 -0.04928917
0000a0 03 ac 9a bd c4 2b f8 bd 4e d7 dc bd 3e 17 83 bc
       -0.0755234 -0.12117723 -0.107832536 -0.016002294
0000b0 29 c0 ce 3b 22 78 c8 bd 06 8f 88 bd ba a1 af 3d
       0.0063095284 -0.097885385 -0.066679046 0.08575769
0000c0 3f 69 2e be 32 f5 bf bb e4 dc 16 be b0 9f 2e be
       -0.17032336 -0.005858087 -0.147327 -0.17053103
0000d0 ae 7f b1 3d 28 03 87 3d 9c 47 10 3e 71 fa 13 3d
       0.08666931 0.06592399 0.14089817 0.03612751
0000e0 77 08 73 3e 47 e9 89 bd c3 46 b2 bd 0d 9c 9a 3d
       0.23733698 -0.06733947 -0.08704903 0.075492956
0000f0 18 56 36 be 8d 8d 1e be 4d 4b 77 bc 18 ac 35 3d
       -0.1780628 -0.15483685 -0.015093637 0.044353575
000100 90 a4 95 3c d0 ae 15 bd 26 75 4f 3c 2b 3c a4 3d
       0.018266946 -0.036543667 0.012662208 0.08019289
000110 df 9a db bd 72 1d 51 3c 29 f6 01 be eb 21 bf bd
       -0.10722899 0.012763368 -0.12691559 -0.09332641
000120 e7 ca d1 bd 7c b3 d7 3b 96 18 87 3d c4 37 46 3d
       -0.10243779 0.0065826755 0.06596486 0.048393026
000130 cc 78 13 3d 09 2a 0b bd 1d e2 ed bd 50 87 ad 3a
       0.036003873 -0.033975635 -0.11615393 0.0013239179
000140 de c6 87 3d 87 6d 15 bd ea ed 9e bc 06 83 05 3e
       0.06629728 -0.036481407 -0.019400556 0.13038263
000150 87 c9 02 3d 19 9c 94 3d 07 ce 32 bd 9e 0f d2 3d
       0.031930473 0.07256336 -0.043653514 0.10256885
000160 2a de 0f 3d 3b 05 76 3d d2 eb 1c bc 39 30 af bd
       0.03512398 0.060063582 -0.009577708 -0.085541196
000170 cd 0c 9a 3d 7c dd 16 bd 8b 88 cf bd 93 95 ef 3b
       0.07521973 -0.036832318 -0.101334654 0.007311532
000180 8f 3d 0b 3e d2 2a ba bd 77 61 cc 3d 9e 99 db 3d
       0.13597701 -0.090901986 0.099795274 0.107226595
000190 90 28 8b 3d 94 69 96 bd 08 54 c9 bd 7f 6d d6 bd
       0.06794846 -0.07344356 -0.09830481 -0.104701035
0001a0 50 75 04 3c 3c 75 bc bd 32 f7 2b bb 6c 23 9e bc
       0.00808461 -0.09202048 -0.002623987 -0.019304
0001b0 19 3f ee bd 04 1f ef 3d 00 83 52 bd 92 18 08 be
       -0.11633129 0.11675838 -0.051394463 -0.13290623
0001c0 a5 80 c9 3d 73 ed 56 3d 5a 03 71 bc e8 9a 99 3d
       0.0983899 0.052472543 -0.014710272 0.07500249
0001d0 1d bb f4 3d d3 d2 e9 bb 13 19 68 3d 70 8a 3b 3d
       0.119497515 -0.007135728 0.056664538 0.04578632
0001e0 81 b8 03 3d 81 cf 47 3c 17 48 be bd 98 bd 02 be
       0.03215838 0.012195469 -0.09291094 -0.12767637
0001f0 8f 16 bb 3d 92 7a 45 bd dd 21 cc bd 66 b8 66 3d
       0.09135162 -0.048212595 -0.099673964 0.0563282
000200 a7 dd f0 3d 45 3e 0d be d3 2e b6 3d 53 ab 29 3c
       0.11761027 -0.13793285 0.0889565 0.010355788
000210 9d b9 3c bd ee 44 3f 3d 38 2d 7a 3d 5f 1b ea 3d
       -0.046075452 0.046696596 0.06107828 0.11431002
000220 7a 4c 41 3d ab e8 05 be e0 f5 0f be 99 a4 30 3e
       0.047192074 -0.13077037 -0.14058638 0.17250289
000230 bb 21 37 bc b8 00 88 bd da 4d 6b 3e 75 6b 3f 3d
       -0.011177476 -0.06640762 0.22978917 0.04673334
000240 8e 81 e4 3d 6a 3e 18 bd 64 f9 3c be 4b bf 11 3e
       0.11157523 -0.037168898 -0.1845451 0.14233129
000250 f8 7a 08 3e 06 8c 6e 3d f7 d1 ef bb b7 ef d0 bd
       0.13328159 0.058239006 -0.007318731 -0.10201972
000260 08 0b 41 bb 3d c6 fc 3c 27 4e 9f 3d c3 ec 90 3d
       -0.0029456038 0.030856246 0.07778578 0.07076409
000270 01 6a 0b be a0 9d 38 3e 4b 18 2e be 1b 1c 12 bc
       -0.13614656 0.18028879 -0.17001455 -0.008917834
000280 82 fa 0d be 96 df 5d 3e 7d 1d 43 3e 3d b4 ec bd
       -0.13865092 0.21667323 0.19054218 -0.11557815
000290 d0 a7 0c be 9b 7b 36 be bd 97 00 be 85 80 8c 3b
       -0.1373589 -0.17820589 -0.12557884 0.0042877817
0002a0 62 0d d5 bb 42 a1 a8 bc b6 94 f2 bd f1 20 75 bd
       -0.0065018395 -0.020584706 -0.118447706 -0.05984587
0002b0 24 a0 93 3d 45 cc 42 be d8 6a cf bc 8c 9b 5b bd
       0.07208279 -0.19023235 -0.025319502 -0.053615138
0002c0 0a 1b 28 3e 1c b8 05 bd a4 1d a6 bc 30 e6 24 3e
       0.16416565 -0.032646284 -0.020277806 0.16103435
0002d0 73 a8 00 3e 61 c4 56 3e b4 4a c8 3d 2b 67 33 3c
       0.12564258 0.2097335 0.097798735 0.01094989
0002e0 76 b7 03 be 91 6c 61 be 5c 14 b2 3d db d5 9f bc
       -0.12862954 -0.22014071 0.086952895 -0.019511154
0002f0 c0 40 a2 bc bb cc ad 3d 11 32 44 bd ca 50 10 bd
       -0.019806266 0.08486315 -0.04789931 -0.035233296
000300 4d b0 c1 bc c5 ee e2 3c b3 f8 85 3c 19 f9 c1 3d
       -0.023643637 0.027701745 0.01635394 0.0947134
000310 7a d5 54 bd d5 5f 13 bc a3 a7 f2 3d b7 a6 84 3e
       -0.0519614 -0.008995016 0.118483804 0.25908443
000320 74 94 fa 3c b9 9d 84 bd 8e f9 ee 3d 42 cb 1e 3c
       0.030588366 -0.06475396 0.116686925 0.009692015
000330 dd 14 76 be 59 b9 ed bd cb 6d ff bd 07 18 86 3e
       -0.24031396 -0.11607618 -0.12472113 0.26190206
000340 3f c3 4c 3c f4 49 c0 3d d2 7f 9f 3d 60 de 1e 3e
       0.012497722 0.093891054 0.07788052 0.15514517
000350 09 23 31 3d 56 0e 28 3c 26 bd 50 3e 97 26 37 3e
       0.043246303 0.010257324 0.20384654 0.17885815
000360 f4 fc 99 3d 8b c9 fb bd 67 ae 20 be 34 de 1d be
       0.0751895 -0.12294301 -0.15691529 -0.15416795
000370 f0 5f 1c 3e 94 97 fc 3d 08 5e 80 3c a9 4d 81 3d
       0.15270972 0.12333599 0.015669838 0.063136406
000380 67 71 59 3e d6 b2 72 3d 5c b1 d4 3d ec 3b d1 bd
       0.21234666 0.059252582 0.10385391 -0.10216507
000390 46 cc 5a bd f6 2b bf 3e 7c 80 12 3c e4 7c 1e 3d
       -0.053417467 0.37338227 0.008941766 0.038693324
0003a0 12 25 14 be d7 a8 05 3d 4b e7 58 3c 6b 82 ca bb
       -0.14467266 0.03263172 0.013238738 -0.006180098
0003b0 0d 8e b9 3d 76 59 df 3d 8d 18 86 3e d3 45 41 be
       0.09060297 0.10905735 0.26190606 -0.18874292
0003c0 a0 02 2b 3e b2 de 72 3d 0d ff 25 3e f5 24 04 bd
       0.1670022 0.05929441 0.16210575 -0.032261807
0003d0 a8 b6 4e 3e cc 2f 89 be 45 e3 bc bb 1a fd 94 bd
       0.20186865 -0.2679428 -0.0057643973 -0.07274838
0003e0 7f ae fa 3d 8d 77 91 3b f6 2a 10 be 11 2a f6 bd
       0.12240314 0.0044393004 -0.14078888 -0.12019742
0003f0 f5 8f 9d 3e a3 e3 44 3e 99 76 80 3d 60 22 d9 3c
       0.30773893 0.19227462 0.06272621 0.02650565

l2.bias f4 [64]
000000 e1 5b 9e bd e1 e5 16 3d 29 07 af 39 9a 5f 15 3e
       -0.07732368 0.036840323 0.00033383936 0.1458725
000010 de 33 ba bd 5b 59 67 bd ca d1 3d bd f5 aa 3a 3d
       -0.09091924 -0.0564817 -0.04634265 0.045573194
000020 1f 88 1f 3e 22 dd fd bd 25 3d 13 3c f3 85 2b 3d
       0.1557927 -0.12395693 0.008986746 0.04187579
000030 83 fc 84 bd 51 cd 44 bd 90 92 a4 3d 34 c7 db 3c
       -0.06493475 -0.048047367 0.08035767 0.026828386
000040 dc 37 67 3c 84 28 03 3d f1 62 af 3d 8c 3f 06 3e
       0.014112439 0.03202106 0.085637935 0.13110179
000050 00 dd e0 bc 93 90 fa 3c 37 a4 87 bc 04 a4 ae 3d
       -0.027449131 0.030586516 -0.016557796 0.08527377
000060 df 09 31 3e 04 12 32 3d 3f 80 97 3d 5c 75 62 3e
       0.17288922 0.043474212 0.07397508 0.22115082
000070 7d d2 b4 bd a7 82 89 3e d7 7c 2a 3e 1e 12 0b 3e
       -0.0882921 0.26857492 0.16649185 0.1358113
000080 70 63 61 3e fa 94 ce bd 10 fe 97 bd 48 df bf 3d
       0.22010589 -0.10087009 -0.074215055 0.093687594
000090 c2 45 b5 3d bc 64 13 bc b5 21 d7 3d e7 c4 86 bd
       0.08851196 -0.008996185 0.10504476 -0.06580525
0000a0 c5 16 ac 3d 66 ed ef bd a5 d9 03 3c 24 e7 b0 bd
       0.084027804 -0.11715202 0.008047496 -0.086378366
0000b0 44 7a 68 3d 1d f6 9d 3d af ff 20 3e f0 2b ca 3d
       0.056757227 0.07712958 0.15722536 0.09871662
0000c0 cb 78 c6 3d 26 0e 59 3d c4 fb 35 3e 25 f8 ed 3d
       0.09691008 0.05299201 0.17771822 0.116195954
0000d0 64 55 14 bd d9 50 e4 bb 16 ec 3a 3e be db 84 bd
       -0.036214247 -0.0069676456 0.18254122 -0.06487225
0000e0 96 bb 2e 3b a7 64 a5 3c 6c c5 c7 bd d5 07 c7 bd
       0.0026662103 0.020189596 -0.09754452 -0.09718291
0000f0 54 97 8a 3c fa 25 94 bd b2 85 82 3a 52 b1 3e 3e
       0.016917862 -0.07233806 0.0009958057 0.1862233

l3.weight f4 [10, 64]
000000 af ae 5f bd 4f 05 0b 3c c9 31 74 be 7f db 7e 3e
       -0.05460995 0.008485152 -0.23847117 0.24888419
000010 8f 13 e6 bd c1 a5 81 3e 24 34 d5 3d 74 8f c0 be
       -0.11234199 0.25321773 0.10410336 -0.37609446
000020 ac 64 7e 3d 29 16 73 be 11 33 5c be 93 56 48 3d
       0.062107727 -0.23738922 -0.21503855 0.04891069
000030 11 f9 8c 3e 4a de 00 be 21 14 05 be 89 63 46 3e
       0.27533773 -0.12584797 -0.1299596 0.19373907
000040 3c b1 eb be 65 7a 0b 3e 3e 29 29 bd ad cf d7 be
       -0.46033657 0.13620909 -0.041299097 -0.42150632
000050 ab e6 81 bb 1d 7c 13 be 64 3c f4 3e b4 e8 89 3c
       -0.0039642653 -0.14402814 0.47702324 0.016834594
000060 58 82 3c be a8 50 63 3d d7 26 d4 3e 13 13 b9 3d
       -0.18409097 0.05549684 0.41435882 0.09036841
000070 8f f0 c9 bd a8 0b 70 be 27 6a 85 be 75 51 37 3e
       -0.09860336 -0.23441947 -0.2605755 0.17902167
000080 06 7d 24 be ee 39 b0 3d d3 9a 7d 3d db df 43 bd
       -0.16063318 0.08604799 0.06191523 -0.047820907
000090 f2 0b ac be 77 42 dc bd 08 42 81 be 13 75 de 3d
       -0.33602864 -0.10754865 -0.2524569 0.10862174
0000a0 0e 6e 32 3e 78 2f dd 3c e2 b1 d4 3d a7 57 84 3d
       0.17424795 0.027000174 0.10385491 0.06462031
0000b0 38 e0 fd bc 2b b9 e9 3d aa 2f 63 3b 52 11 e2 3d
       -0.030990705 0.11412271 0.0034665861 0.1103846
0000c0 a6 da e5 3e d1 9b e4 be 65 1e 6d be 0f 2e 10 be
       0.44893378 -0.44650128 -0.23156126 -0.1408007
0000d0 80 be 1e be 64 ab 0b bd 10 c4 05 be b1 2e 85 bd
       -0.15502357 -0.034098998 -0.13063073 -0.06503046
0000e0 1e 5f 7d 3d 3b fc 8c 3e 55 fd 48 3e 79 b4 b9 bd
       0.06185829 0.27536187 0.19627889 -0.090676256
0000f0 5e 65 b2 3d ab d3 a6 3e e6 8f 06 be 5e f9 a1 3e
       0.087107405 0.32583365 -0.1314083 0.31635565
000100 1d 71 bc be 0d d2 2a bd c9 c4 6e be 72 e4 33 3e
       -0.3680505 -0.041704226 -0.23317255 0.17567614
000110 ab 37 27 bd 9f b2 6e 3d 1b 6e 49 bd 97 7f 62 bd
       -0.040824573 0.058275815 -0.04917727 -0.05529746
000120 f5 f7 1b be 9e bb 90 3d c0 55 bb 3e f3 cc db bd
       -0.15231307 0.07067035 0.3658886 -0.1073245
000130 0c 17 d6 be d3 b7 65 be 9b 3b bf bd 87 cb 6c be
       -0.41814458 -0.22433405 -0.09337541 -0.23124515
000140 d4 77 70 3e fa 67 89 3d c9 6e 0b 3a f6 ad 12 3f
       0.23483211 0.06709285 0.00053189375 0.57296693
000150 15 95 f9 bd 20 42 76 3e 40 5b ce be 69 dc 42 be
       -0.12186638 0.24048662 -0.40303993 -0.19029392
000160 27 e8 82 be 44 fc d4 be d7 94 9c be 64 18 2b 3f
       -0.25567743 -0.41598713 -0.30582306 0.6683409
000170 bc 79 20 3d d8 6e b7 be 91 74 3d be f6 d6 05 be
       0.039178595 -0.35826755 -0.18501498 -0.13070282
000180 3a 55 8f 3e 0f ce 8c be 10 d5 95 3d f2 48 5a be
       0.2799471 -0.2750096 0.07316029 -0.21316889
000190 5f d3 92 3d 12 11 ee 37 ea e5 d3 3c 86 e1 86 bd
       0.07169222 2.837976e-05 0.025866468 -0.06585984
0001a0 df ed 18 be e7 78 82 3d 67 3d 2b be e4 a4 98 3c
       -0.1493449 0.063707165 -0.16722642 0.018633313
0001b0 f6 20 39 be 92 1c 09 3c 23 7b 42 bd 48 0d 49 be
       -0.1807898 0.008368628 -0.047480714 -0.19633973
0001c0 e8 f6 c4 be bf 35 80 3e 30 4d c6 3d 52 55 20 bd
       -0.38469625 0.25041005 0.09682691 -0.039143868
0001d0 42 f3 e2 3d 8a 51 63 3e 17 5c 02 be 0f 23 65 3d
       0.11081554 0.22199073 -0.12730442 0.055941638
0001e0 6a a0 b1 3d f8 ba b9 3c e5 0b 4d be d5 34 8f 3c
       0.08673175 0.022672161 -0.20024069 0.017481247
0001f0 ed 9f a9 bc 8f d0 42 3d c1 e3 a9 3e 7d 4e de be
       -0.020706141 0.04756218 0.33181575 -0.43419257
000200 fc f5 bb 3d f6 07 8e 3d 37 c7 b5 be 5c 24 46 3c
       0.09177777 0.06935112 -0.3550355 0.01209363
000210 03 66 bd be 9a fe 46 3c 72 d6 43 3e 6d f1 89 be
       -0.3699189 0.012145663 0.19124773 -0.26942006
000220 fe 2c 92 3e c7 bd 0a 3e 30 4b 38 3c a7 79 67 3b
       0.2854995 0.13548957 0.011248395 0.0035320313
000230 3e 13 ac 3d 10 89 b3 bc 78 66 9a 3e 68 ea 99 bc
       0.08402108 -0.021915942 0.30156302 -0.018788531
000240 a7 7b 2d bd ef d2 38 be 3d 45 99 be b3 d7 48 be
       -0.042354252 -0.18049215 -0.29935637 -0.19613533
000250 23 ca 4b 3e 2d bc 69 3e d5 8b d0 be 1a 10 b0 3e
       0.19901328 0.2282569 -0.40731683 0.34387285
000260 11 96 d9 3d aa 3f fa 3e 5d f1 60 be fc ef 48 be
       0.10624326 0.48876697 -0.21967073 -0.19622797
000270 62 d6 9b 3c 43 e6 9d 3e 0f 54 3c be 27 a7 9a be
       0.019023124 0.30839738 -0.18391441 -0.30205652
000280 bd ed 4b 3e e0 5a e1 3e 5f c7 3c 3d 2c 1a 58 3d
       0.19914909 0.44014645 0.046088573 0.052759334
000290 2e e2 7d be 71 13 ad 3e 96 c6 a2 be 0c e1 af bd
       -0.24793312 0.33803895 -0.31792134 -0.08587846
0002a0 75 ea 61 3e ee cf 86 bd e5 db c0 be 4d 14 a4 3c
       0.22062095 -0.06582628 -0.37667766 0.020029211
0002b0 d4 4c 98 be 46 11 cb bc 6b a8 a4 3e b4 82 f3 3e
       -0.29746115 -0.02478851 0.32159743 0.47560656
0002c0 70 30 09 3b cb 6c ba 3e 73 86 1c bb 7e 36 88 3c
       0.0020933412 0.36411127 -0.002388385 0.016627546
0002d0 ba 73 0f bc 65 9b e6 3e 39 6a 7c bd c5 06 19 be
       -0.008755619 0.45040432 -0.06162474 -0.14943989
0002e0 3f 76 13 3e c2 b8 9a 3e b2 bc 83 be 72 7c 50 bc
       0.14400576 0.30219084 -0.257299 -0.012724983
0002f0 0a cc 76 bd 02 13 04 3e f8 fe 6a 3c 09 c0 1b 3f
       -0.06025318 0.12897876 0.014343016 0.608399
000300 95 b3 06 be d8 e5 e8 3c 48 f1 d2 bd e7 80 1e 3e
       -0.13154443 0.02842991 -0.10299927 0.1547886
000310 de 09 14 3d ce 8c d4 bc 02 55 ae 3e 88 d5 a7 3e
       0.036142223 -0.025946047 0.3404923 0.327801
000320 ae 85 86 3d 60 6f aa bd 59 f2 0f 3e 97 89 d4 3d
       0.06568466 -0.08322024 0.14057292 0.10377806
000330 d1 d1 8d 3e 70 79 fd 3c 15 24 fa bd 02 89 e4 3c
       0.2769914 0.030941695 -0.12213913 0.027897362
000340 74 16 fa bd 30 be a9 3e 23 da 45 3e 85 38 fa 3d
       -0.12211314 0.33152914 0.19321494 0.122178115
000350 75 7e 52 bd 7e c5 a5 bd 74 13 0e be a0 ac 26 3b
       -0.05139013 -0.08094309 -0.13874608 0.0025432482
000360 c3 be 28 be 0e 60 20 be e7 d8 ac be 97 e7 39 be
       -0.1647902 -0.15661642 -0.33759233 -0.18154751
000370 db 84 37 bd da 88 e0 be 1a 66 1a 3d 3a e7 ed be
       -0.044804435 -0.4385441 0.037695028 -0.46465474
000380 a5 95 88 3e 34 3c 8c 3e f3 1c 64 3d d6 92 20 3d
       0.2667667 0.2738968 0.05569167 0.039202534
000390 94 92 c4 3e bf 03 1a be 05 b2 1d 3f a2 4a eb bd
       0.3839308 -0.15040492 0.6159976 -0.114888445
0003a0 43 af f4 3d ee 5e 93 bc 3f b2 c3 bc a0 77 59 bc
       0.11947491 -0.017989602 -0.023888705 -0.01327315
0003b0 c1 92 bd be 2a b1 91 3d 75 dc 64 be c1 c2 a7 3d
       -0.37026027 0.071138695 -0.22349723 0.08191443
0003c0 d3 ad 78 bd 63 06 31 3d 3c 49 9a be a4 2e 58 bd
       -0.060712647 0.04321898 -0.30133998 -0.052778855
0003d0 14 15 00 be 42 63 f3 3e c2 c6 84 bd de 0b a4 bd
       -0.1250804 0.47536665 -0.064832225 -0.08010076
0003e0 c4 03 53 3e f5 03 33 be 39 de 2d 3e 5b 70 97 bd
       0.20606905 -0.17481978 0.16979302 -0.07394477
0003f0 2b bd b7 bd 76 a3 0d be 30 73 bc be 90 83 ea 3e
       -0.08971628 -0.13831887 -0.3680663 0.458035

l3.bias f4 [10]
000000 f1 9d f0 bd 11 33 65 3e 80 83 98 bd 07 39 11 bd
       -0.11748875 0.22382762 -0.07446957 -0.035454776
000010 b3 62 5a 3c f7 80 b3 3e 43 4b 97 bd c1 02 3a 3e
       0.013329196 0.3505933 -0.07387402 0.18165113
000020 2f 89 7d be 58 d6 bb bd
       -0.24759363 -0.09171742
