mnist_logs/my_model/version_1/checkpoints/epoch=9-step=18750.ckpt (torch, 224915 bytes, 6 tensors)

l1.weight f4 [64, 784]
00000000: 0ea7 b33c 008b 85ba 7ece f4bc 9ee7 f33c
00000010: 60a4 adba f08b 543b 8c6f ebbc 0b39 10bd
00000020: 0493 3b3c 1445 313c 44e2 3c3c 464c 57bc
00000030: 8d3d 4fbc 6ec7 d53b 40c3 b8bb acc8 ffbc
00000040: c8df b6bb 782c b3bc 2834 ca3c 44d5 483c
00000050: dca0 a93c 1290 e43c 4ab2 54bc 4a32 f63c
00000060: 02c9 04bd ca4c 6dbc 620d b03c f07c 3c3b
00000070: b9e2 0b3d 389b 673c 7c57 cdbc 9cd2 ffbc
00000080: b86e 543c 05d8 093d abfc 0f3d fef8 57bb
00000090: 6f52 8a3a a0fa e1bc f753 afbc 594a bcbc
000000a0: 82e9 553c e7ba 72ba ccdb 68bc 233e 123d
000000b0: 7f8a 913c b8d1 743a d805 dabb 7e9c 6fbc
000000c0: 8349 80bc fa24 af3c b08d 133c 8d5a 0dbd
000000d0: 68a0 b9bc 30e3 0e3b 654c acbc 503f 95bc
000000e0: 3ea7 93bc 6023 b8ba b83f 00bc 5087 b0bc
000000f0: d2b8 69bc 7dd3 e1bc 1d26 033d 2561 5d3c
00000100: e92c a6bc 779b 4d3b 0d63 aabc 056f 79bb
00000110: 7540 d8bc 5d94 90bb f226 0b3d 83c9 b7bc
00000120: a951 f33c 18a1 b33c 6653 e83b 7fbe 0dbd
00000130: 00fe bd3c ce2e 1c3c c2b4 bfbc b8f5 a53c
00000140: 8a0a 2f3c 55c7 963c d0e1 903c 409b bcbc
00000150: b5a2 e1bc a817 b23c 676c 023d 808a e539
00000160: 8fe5 3039 40fe bdbc c99b 02bd 66d1 5abc
00000170: aa28 11bb dfba bbbc c040 8a3b 3f5c 073d
00000180: 3c34 ea3c eb6b d73c db19 d33c e6d9 603c
00000190: fedb 05bd e288 fd3c 71b2 febc 338b 95bb
000001a0: 6386 c1bb 8ce8 1f39 20b2 ce3c 2b6c 04bd
000001b0: 04f8 353b c0cf 743c e5a5 f0bc f2a3 dc3c
000001c0: 9cf3 ebbb 9830 52bc 54a3 663c 66eb 0ebd
000001d0: cb5a 2fbc 9d2f 06bd 2613 fa3c bf70 0ebd
000001e0: af44 d43c f44b e2bc f683 043d 8e47 eb3c
000001f0: 81c1 b23c 592b 00bd f72f 453b 06ab d23c
00000200: b13c 1e3c 5d8a 3a3c d072 b33c 53dc dbbb
00000210: 86e2 e3bc 6897 e43c f252 743c 0323 fe3b
00000220: 7211 d03b 4d2f c2bc a32e 093d a231 853c
00000230: 1982 053d 28c8 c23b 2c80 8d3c 0055 98bc
00000240: f5d5 c13c f75c 273c 6b81 cb3c dd64 6b3c
00000250: f4b9 a9bc 0f73 10bd 7e99 743c bd7d 9b3c
00000260: f57d db3c cc81 72bb ab71 d8bc 0068 a4bc
00000270: 8379 a6bc 7981 96bc 5453 8bbc 6727 c83c
00000280: 8756 df3b 057b 3ebc ba90 e93b 7387 273c
00000290: 143f cc3a cf0b b53c 3287 0abb 1473 673c
000002a0: 68f3 1e3c 2015 42bc 8e57 09bc 86eb 3d3c
000002b0: 6006 d4bb a28d 03b9 d7ed e2bc a0cd 8dbb
000002c0: 336d 3d3c c90b f0bc 5878 153c 019f 3abc
000002d0: 1c46 16bc 9a1e 923c 982c e63c 4467 0cbd
000002e0: 6313 1abb 65a7 313c f8cb 01bd 2062 05bd
000002f0: 5420 cabc 71a7 a1bc faf5 0d3d 9465 a9bb
00000300: 9f75 b4bc ae9b 16ba f70d d5bc 9044 bfbc
00000310: 325f e63c f0df 33bb 0844 823b e13f 80bc
00000320: 1cb3 013d c48a afbc 9fb1 9e3c f1ee 823b
00000330: 1fcd d4bc 53d0 0ebc c5a1 27bc d8b5 bfbb
00000340: e86c c53c 31cb 313c b465 7cbc 3f01 b33b
00000350: 53a9 6c3c fb00 82bc b06f adbc ac60 5d3c
00000360: c66b bfbc 15ea a5bc 7cb3 01bd d524 94bc
00000370: d063 b5bc 05a2 333c 7044 9abc 05eb afbc
00000380: 8e85 fbbc c354 a73c dc86 33bb 5cbe b7bb
00000390: b762 46bc 92b7 1c3c 3563 b7bc 3abf af3c
000003a0: 4a8b b8bc fb41 4bbc 66af 52bb cf12 eeba
000003b0: d990 cbbb 6c67 b2bc 8899 ad3c bfbb 463c
000003c0: d0da 64bc 3e63 083d 3105 afbc 705c 533c
000003d0: cc69 e8b9 2309 17bc 47b2 dd3a 8490 bebc
000003e0: e981 003d e265 963c 96b3 abbb 2917 0abd
000003f0: 7086 0ebb cc08 a03c f6bc 873b e0ab 913a
0.021930244 -0.001018852 -0.02988362 0.02977353 -0.001324784 0.0032432042 -0.028739713 -0.03521065
0.0114486255 0.010819692 0.011528555 -0.013140744 -0.012648952 0.006524018 -0.00563851 -0.031223617
-0.005580876 -0.02187179 0.024683073 0.012257878 0.020706587 0.02790073 -0.012981961 0.030053277
-0.03241826 -0.01448364 0.021490756 0.0028760992 0.034151766 0.014136128 -0.02506613 -0.031228356
0.0129658505 0.033653278 0.035153072 -0.0032954807 0.0010553132 -0.027585328 -0.021402342 -0.02298467
0.013056161 -0.0009259418 -0.01421256 0.03570379 0.017766235 0.0009339112 -0.0066535287 -0.014624713
-0.015660053 0.021379936 0.009005949 -0.034510184 -0.022659495 0.0021802895 -0.021032522 -0.018218666
-0.018024083 -0.0014048629 -0.007827692 -0.021548897 -0.014265256 -0.027566666 0.03201877 0.013511931
-0.020285087 0.0031373182 -0.020799184 -0.0038060558 -0.026397923 -0.0044122175 0.033972688 -0.022434955
0.029702025 0.021927401 0.00709002 -0.0346055 0.023192406 0.0095326435 -0.023401622 0.02025877
0.010683665 0.018405596 0.0176858 -0.023023248 -0.027543405 0.021739796 0.03184166 0.00043781474
0.00016870185 -0.023192525 -0.03188685 -0.013355589 -0.0022149482 -0.022916256 0.0042191446 0.033046957
0.02858936 0.026296576 0.025769165 0.013723826 -0.032680504 0.03094906 -0.031090947 -0.004563713
-0.0059059127 0.00015250052 0.025231421 -0.03232972 0.0027766237 0.01494211 -0.02937598 0.026933644
-0.0072006714 -0.012828968 0.014077026 -0.034892462 -0.010702799 -0.03276025 0.030526709 -0.03477549
0.025911657 -0.027624108 0.03235241 0.028720643 0.021820785 -0.03129134 0.0030088404 0.025716316
0.009658025 0.011385527 0.021905333 -0.0067096143 -0.027817976 0.027904227 0.014912354 0.0077556386
0.006349736 -0.023704195 0.033491742 0.016259018 0.032594774 0.0059442706 0.017273031 -0.018595219
0.023661593 0.010215036 0.024841985 0.014367309 -0.020718552 -0.03526598 0.0149291735 0.018980855
0.02679346 -0.0037003634 -0.026421389 -0.020069122 -0.020321613 -0.018372284 -0.017007507 0.024432851
0.006815735 -0.01162601 0.0071278485 0.010225165 0.0015582764 0.022100357 -0.0021137712 0.014126558
0.009701587 -0.011845857 -0.008382691 0.011591798 -0.0064704865 -0.00012545896 -0.027701302 -0.004327491
0.01156168 -0.029302495 0.0091229305 -0.011390449 -0.009171989 0.017836858 0.028097436 -0.03427817
-0.002351009 0.010843133 -0.03168866 -0.032564282 -0.024673618 -0.019733163 0.03465841 -0.0051695798
-0.022028742 -0.0005745244 -0.026007636 -0.023348123 0.028121565 -0.002744671 0.003975395 -0.01565546
0.031664953 -0.021428473 0.019371806 0.003995769 -0.025976716 -0.008716661 -0.01023144 -0.005850535
0.024099782 0.010851667 -0.015405107 0.005462795 0.014444667 -0.015869608 -0.02117142 0.013511818
-0.02336682 -0.02025322 -0.03166531 -0.01808397 -0.02214232 0.010963921 -0.018831462 -0.02147437
-0.030703332 0.02042616 -0.0027393615 -0.0056074094 -0.012108496 0.009565251 -0.022386173 0.021453489
-0.022527356 -0.012405868 -0.0032148003 -0.0018163564 -0.0062123355 -0.021777831 0.021191373 0.012129723
-0.013968185 0.03329777 -0.02136478 0.012900457 -0.00044329313 -0.009218487 0.0016914093 -0.02326227
0.031373892 0.018359128 -0.005239914 -0.033713493 -0.0021747611 0.019535445 0.004142399 0.0011113845

l1.bias f4 [64]
00000000: b2a6 54bc 5a1f e43c bd60 ecbd f0cc 0a3d
00000010: ac31 0bbd 41be 493d 6d8c 533d f76d 9c3d
00000020: 0bb3 e2bc dc66 93bd 8e92 70bc c060 45bd
00000030: f508 8fbd ac81 91bc 8c09 1bbc bb4a acbc
00000040: abec 223c f1b1 eb3d 31fd 763d 5789 3abd
00000050: 6f4a 80bb cabc a33d feec 4d3e 6d98 893b
00000060: 48ba ec3d 866e 17bd dfd8 5abb 51d8 0a3e
00000070: 5d54 ad3d 5345 d93d 5d65 b1bd 466d c639
00000080: 0c5c b0bc b235 bfbc 7aef d13d 8487 02bd
00000090: 37f9 2e3d 92ac f13d 5e17 363d b830 093d
000000a0: d9a9 77bd f891 d63d 7bab ad3d 3eac 99bd
000000b0: 7942 b53c c00a 993d e7b6 b43d 486e 783d
000000c0: f44d 85bb 35c0 af3b 86bd ac3d 6b6b 013d
000000d0: ba35 743d ca4c ae3c 3510 513a fe3b ba3c
000000e0: e8f6 e13d 60ce 8d3d f0ed 0d3b 2788 ad3d
000000f0: 315c a0bd 4e2a 52bd fe71 463d 509a ccba
-0.012979196 0.02784698 -0.11541889 0.03388685 -0.033982918 0.049253706 0.051647592 0.07638162
-0.027673265 -0.07197353 -0.014683379 -0.04818797 -0.0698413 -0.017762028 -0.009462725 -0.021031728
0.009944121 0.11508549 0.060300056 -0.045541134 -0.003915123 0.07994993 0.20109937 0.004199079
0.11558968 -0.036970638 -0.0033393425 0.1355908 0.08463357 0.10608926 -0.08661912 0.00037846918
-0.021528266 -0.023341034 0.10250755 -0.03186752 0.04271814 0.11800493 0.04445588 0.033493727
-0.060464714 0.1047706 0.08479973 -0.07503556 0.022126423 0.074727535 0.08823948 0.060652047
-0.0040681306 0.005363489 0.08434586 0.031596582 0.05962155 0.02127685 0.00079751323 0.022733685
0.11033422 0.069241285 0.0021656714 0.084732346 -0.07830084 -0.051309876 0.048448555 -0.0015609954

l2.weight f4 [64, 64]
00000000: 627a f9bb ac0e c83d b391 36be bb52 d6ba
00000010: 8a19 edbd 3d60 9d3d 4f6d ed3d 9118 37be
00000020: 49bb e8bc 2f4b eabd 8b84 c43d b988 3c3e
00000030: 686d fd3c 1075 edbd 019b 5f3d 3ab4 09be
00000040: eb54 ccbd 8344 0d3e 5d6f f43d e817 123d
00000050: e5bc 7c3d 0c02 e53d bb6f cc3d 395c 323c
00000060: 3e94 d63d fb03 f53d b7aa 123d 6a17 44be
00000070: e5ac d4bd c042 3c3e 3b00 c23d ba48 373e
00000080: c3f1 85bd 89bd 17bb 12b2 dd3d e983 b13d
00000090: a4e1 343d e5f6 a138 919f f93d e7e6 ecbc
000000a0: 583f 973d 2dd9 4f3e f7e2 d9bd 9b0b 33bd
000000b0: 7493 153e daac 47bc 45ef 6c3d be65 19be
000000c0: 0fd2 9f3d 4cca db3c b92f c23d 27a4 9cbd
000000d0: 9621 1f3d 6150 57be 2043 c0bc b5db 61bc
000000e0: eaab 3f3e 2fe1 b8bd 91d1 3b3e fbf7 fe3c
000000f0: 590a 453e 1a5d a03d d8cc fc3d d93c 6f3c
00000100: da32 0c3d 8f06 263c b30d 22be aad5 f7bd
00000110: a133 e3bd 747f 073e b776 fd3d 8c3c 12be
00000120: 9e30 59bd 62d4 d6bd 8cb1 523d cc04 0e3e
00000130: 1fda 12bd 99d0 f9bb 3f6f bd3c 20e3 50bb
00000140: bf12 e73d ad62 833d 8198 9d3d 360e b1bc
00000150: 236e 9ebd d99e a2bd 8187 1c3e 4aa4 ed3d
00000160: db37 ed3d cd88 85bd 8027 553d 3514 023e
00000170: 3aaa 9b3d 11c2 1e3d fb39 a8bd 2861 503d
00000180: 4788 a0bd 1dc7 a63a 6cfb 853d 085b a4bd
00000190: d68c 9d3d beb9 0abd 5f14 1e3e 93a9 983b
000001a0: f256 3a3e fc9a a93b 730f ab3d b420 623d
000001b0: 0d4f b83d 1fc2 04be 32c7 623e f095 31bd
000001c0: 971a 4abd 8718 1d3d c34a 0e3e 6ed7 fe3d
000001d0: cfe9 673d fb7a 18be 23b1 453d 5749 a03d
000001e0: ca96 a0bd 8ad3 d3bd f3f9 be3d 2624 debd
000001f0: 77f7 9ebd c91a 243e 6f2c ac3c e7de c93d
00000200: 6e01 c3bd c9aa 283e 7c42 d6bd 7cf8 a1bc
00000210: 1dbf 113e 76cd 2fbc 8c01 c73d 0cb2 3bbb
00000220: aa0d 25bc a400 0e3e d782 043e c3eb 603d
00000230: b872 0a3e 7775 dbbc 0cdc 31bc 3b95 c53d
00000240: ca1d fbbd b2af 193e d00a 833d 7165 1b3e
00000250: 118e ab3e 8b70 5d3e bddc 653d d3dc 87be
00000260: e2c5 4f3e 446d d2ba 3c02 4b3d a38c 21be
00000270: 4626 27be 7bb5 45bd cce4 b4bd 8e61 8fbb
00000280: c728 f13d 4b83 16bd 01f6 083e 0b0a 8c3e
00000290: a959 853d 9166 183e e325 23be a49a 0a3e
000002a0: cbee 97be d34e 70bd 9945 efbd ccca fe3c
000002b0: f42b 043d 0435 7d3d bd1f 53be 2efa 9abd
000002c0: fc79 0a3e 306a 03bd ebad 10be 9767 533e
000002d0: 11b3 bdbd 1586 a73d 8534 c23d 486e 2d3e
000002e0: 25df 673e 10f7 3b3d 4ed3 5b3e 17a4 45be
000002f0: 7d87 9b3d 96ec 893d 3f0e aebb 32f8 16bd
00000300: 3b59 2e3d 4a7d ea3d 0784 1abe d533 883c
00000310: 1011 713c 25b2 053c 1271 823d 7c91 0cbe
00000320: 8c16 ee3c eb4b 4cbd 5a84 603d ac65 a13d
00000330: d36a c73d e526 013e 5801 afbd bb59 153e
00000340: a94c 573e 81af 413e 5f7d b9bc ac6a e73d
00000350: 4648 923e 4579 ad3c ebc7 07be b6a9 11be
00000360: a751 9ab9 dd59 103e 65c2 14be d4e9 2e3e
00000370: 35b1 6d3d 9b89 f03b 48fd 20be a142 e0bd
00000380: fc36 e63d 0ed3 dbbd b9cd 88bd 6720 1b3e
00000390: c589 0f3e df6c 153e 3ce8 613c 8a38 cbbd
000003a0: b74b 56be 9e33 7bbe eb58 9e3d c5db f43d
000003b0: 066c e2bd 7f60 183e d136 9bbe a2bc d0bd
000003c0: 0319 e4bc cd69 44be eed3 c53d 399e 54bd
000003d0: 65dc 17be 2be6 8c3c cafa 30bd ee61 213e
000003e0: d475 533d 7733 d5bc ae44 6abd c54c 5bbe
000003f0: bfd2 40bd 2ea0 c03d c89d b3bd c12e d0bd
-0.007613466 0.097684234 -0.17829017 -0.001635156 -0.11577137 0.076843716 0.115931146 -0.17880465
-0.028409617 -0.114401214 0.09595593 0.1841153 0.030935958 -0.115945935 0.054591183 -0.13447657
-0.09977134 0.13795666 0.11935303 0.03566733 0.06170358 0.11182031 0.099822484 0.010886245
0.10477494 0.1196365 0.035807338 -0.19149557 -0.103845395 0.18384838 0.094727 0.17898837
-0.06540253 -0.0023153743 0.1082498 0.08667738 0.0441605 7.723066e-05 0.12188638 -0.028918697
0.07385129 0.2029769 -0.10638993 -0.04371224 0.1460703 -0.012187207 0.057845373 -0.14980218
0.07803737 0.026829861 0.094817586 -0.07648497 0.03885039 -0.21026756 -0.023469508 -0.013785292
0.18717924 -0.09027325 0.18341662 0.031124106 0.19242229 0.07830258 0.12343758 0.01460191
0.034228183 0.0101334 -0.15825538 -0.121013 -0.11093832 0.13232213 0.12376159 -0.1428091
-0.05302488 -0.104897276 0.051438853 0.13869017 -0.035852548 -0.0076237437 0.023124335 -0.0031873658
0.112828724 0.06415305 0.076951034 -0.021613222 -0.07735851 -0.07940454 0.15286066 0.11603601
0.11582919 -0.06520233 0.052039623 0.12703021 0.076008275 0.038759295 -0.08214184 0.050873905
-0.07838493 0.0012724135 0.065420955 -0.08025175 0.07692878 -0.033868544 0.15437458 0.0046588867
0.1819723 0.0051759463 0.08352556 0.05520697 0.08999453 -0.12964676 0.221463 -0.043355882
-0.049341764 0.03835347 0.13895707 0.12443434 0.05661946 -0.14890663 0.048264634 0.078264885
-0.07841261 -0.10343082 0.09325018 -0.108467385 -0.07762044 0.16025843 0.021017281 0.098569684
-0.09521757 0.164714 -0.104619 -0.019771807 0.1423306 -0.010730138 0.09717092 -0.002864006
-0.010074059 0.13867432 0.12940536 0.05491234 0.13520324 -0.02678941 -0.010855686 0.09647604
-0.12261541 0.15008429 0.06398547 0.15175416 0.33506826 0.21624963 0.056118716 -0.26535663
0.2029033 -0.0016054292 0.049562678 -0.15776305 -0.16323194 -0.048268776 -0.08832702 -0.004375643
0.11775356 -0.036746304 0.13375093 0.27351412 0.06511242 0.14882876 -0.15932421 0.13535553
-0.29674372 -0.058668923 -0.116831966 0.03110256 0.03226848 0.061818138 -0.20617576 -0.07567249
0.13523096 -0.03208369 -0.14128844 0.20644985 -0.0926267 0.08179871 0.094826736 0.169366
0.22643717 0.045889914 0.21467325 -0.19300877 0.07594202 0.06734578 -0.005311757 -0.03685779
0.042565566 0.11449678 -0.15089427 0.016626278 0.014713541 0.008160149 0.06369223 -0.13727373
0.029063486 -0.04987709 0.05481372 0.078807205 0.09737172 0.12612493 -0.08545178 0.1458501
0.21025337 0.18914606 -0.02264279 0.11299643 0.28570765 0.02117599 -0.13259856 -0.14224896
-0.00029434005 0.1409678 -0.1452728 0.17081386 0.058030326 0.0073406226 -0.15721619 -0.109502085
0.11240956 -0.10733615 -0.066798635 0.1514908 0.14017399 0.14592312 0.013788279 -0.09922893
-0.2092732 -0.24531409 0.077318035 0.1195598 -0.1105576 0.1488056 -0.3031526 -0.10192229
-0.027843958 -0.19180985 0.09659563 -0.051908705 -0.14830168 0.017199596 -0.04320792 0.15760013
0.05162604 -0.026025517 -0.057194404 -0.21416004 -0.047075983 0.09405552 -0.08770329 -0.101651676

l2.bias f4 [64]
00000000: 73c1 ac3d c9ce 933d 796b 023e 4d05 1cbd
00000010: 5d2d 753e 10c6 e03d 54df c63d 7fa8 47bd
00000020: f2d0 2d3e 38f1 44bc 5d59 6d3e f303 b5bc
00000030: 988a 4f3e bd52 88bd 8b44 c0bd fe74 e3bb
00000040: 6a24 8a3e b57b cf3b 8b24 4bbe 3b0e 9d3c
00000050: 9843 00be 9991 8cbd eda0 bcbd c3a5 a23d
00000060: b0f9 fc3c 334a fb3c 5d17 f73d bd73 b53d
00000070: 5dfd 653d 3a56 693e 403a 203c 24da 793c
00000080: 1cd5 6abd c0d2 643e 088b a93d 7e08 293e
00000090: c28d 5b3d 5b9c 8a3e 4e14 0cbd e161 5a3e
000000a0: 7748 d5bd 6dc2 c1bd 8787 163e ee0e f9bd
000000b0: 1312 02be e023 663d ed5a b63d 35ef d9bd
000000c0: 3a76 08be 0bd0 d8bd 2e63 a13d 59bf 1b3e
000000d0: dc59 953c bcab 433c ea1f 3cbe bfd2 a13d
000000e0: a926 d73c 65dc c93b b2d1 fb3c 98f3 323e
000000f0: facf 3bbb 0dd8 0c3d 6952 513b 56ee 503e
0.08435335 0.072171755 0.1273631 -0.038090993 0.23943086 0.109752774 0.09710565 -0.048744675
0.16974238 -0.012020402 0.2317862 -0.02209661 0.20267713 -0.06656406 -0.093880735 -0.006941437
0.26980907 0.0063318857 -0.19838159 0.019171825 -0.12525785 -0.06863708 -0.09210382 0.07941773
0.030880779 0.03067503 0.12065003 0.08859966 0.05614983 0.22786799 0.009779513 0.015249763
-0.057332143 0.2234602 0.08278471 0.16507146 0.053601988 0.27072415 -0.03419905 0.213264
-0.10414212 -0.09460912 0.14700137 -0.12161051 -0.12702207 0.056186557 0.089040615 -0.10641328
-0.1332635 -0.10586556 0.07880245 0.15209712 0.018231325 0.0119428 -0.18371549 0.07901525
0.026263552 0.0061603063 0.030739639 0.17475736 -0.00286579 0.03438573 0.003193999 0.20403418

l3.weight f4 [10, 64]
00000000: 9da5 e03b 7de5 ff3d 86e5 debe d9e2 b5be
00000010: befb 85bd b137 013c 0050 01bd 26f8 1c3e
00000020: 7e46 c83e 74ff aebe abb9 1abe 8cb4 693d
00000030: 4bec 48be 83fe ef3d 5608 de3c eceb 18be
00000040: 7ccd e3be 9070 4d3d c06e d83a 0d37 cfbe
00000050: f10f 88bd 548d 2cbd c00f b73c 38ec 253e
00000060: 1113 613e 9738 0d3f 2e68 bdbd 61ba 30be
00000070: 616f d0bd 2a00 d0be bfd6 023e 7566 723e
00000080: e072 30bc f9cf 12bd e66c 6d3c 87d6 96bc
00000090: 746f 053e 66db b5bd db76 453e eec1 0fbf
000000a0: 221a 043d 2b8a 6b3d 154c 0fbe b814 a03d
000000b0: 1624 a93d 0bf4 823e 5b13 983e 3390 0c3f
000000c0: a68c afbd 9183 9ebe d892 1a3e 5d86 9dbe
000000d0: 4bd5 613e 0ae5 6dbe 48f3 5b3e 5ac0 3e3d
000000e0: ca78 1a3e c386 9a3a 14ad dc3d 3b46 a63d
000000f0: 5c51 24be b9f8 5b3e 5f6f 59bc 3d6b 5ebe
00000100: 1cab cf3d 4207 ffbd 2a63 b13e 2467 aebc
00000110: 7a53 c339 033a 723e 1276 b23d cce6 c33c
00000120: 7123 fdbe c96f b93e a574 7cbe d748 5a3c
00000130: 338c 753e 5a7f ed3c 4304 0b3e 82c4 af3e
00000140: e1b4 e93e 58e4 54be e48d edbd 991b 33be
00000150: d101 b23d 783d 7e3d 20e7 92bd dc52 e9be
00000160: fcdb 5abe de97 b3be 0fa6 a43e d1d7 703e
00000170: 219b bbbc 09a5 d13d c6e5 813e 118d 6cba
00000180: b89b b5bd 070b 47be e2d0 4e3e 8428 5cbd
00000190: 2e6a e7bd c557 14bd 8e2e b53d e546 893d
000001a0: daf2 363d 9558 3fbd 439c 8fbe bce7 f5bd
000001b0: 3ca9 84bd d414 703d 56c6 c2be 8886 27be
000001c0: ee02 d43d 7e47 733e 9c5c c13e 729e 6f3e
000001d0: aa8f 18be 3c5a 7e3c 7f02 c1bd 6674 673e
000001e0: a60b 11be 1120 9f3c 5ffa e9bd 0f51 54be
000001f0: 4667 a0be 1c0f 84bd 2d5c abbe 9b7e b6bd
00000200: 751d 4fbe ac0f 183e c2c7 e6be 53b4 fc3c
00000210: a00d dcbd 1d4b 283e 051f 5d3e 627d c9bd
00000220: 157e 64be a4cd 923e 77db d2be 90b2 723e
00000230: d759 74be 59cc c83c f3de 84bd 6f95 8b3e
00000240: f426 84be 0476 d8be ab18 e33e b5de 363d
00000250: 1d26 64be 95b1 bc3d 9f1f 38bd 302b 9f3d
00000260: 49fa a63e 10cf c63e 61a5 fb3d c0a6 073e
00000270: ed24 df3d 3d87 9fbd 66e1 3ebe 43a7 2d3e
00000280: 705a 34bd c0b1 1dbe 43e1 2bbe 131b 89be
00000290: 77f1 82be 851f eb3d 0133 453c 722e 3bbe
000002a0: 8f85 60bd e940 bb3c eb9b 213f eb89 eebd
000002b0: fc59 cdbd 7a9f 983d f6fd bdbe cb04 5b3e
000002c0: b27b 583d e164 193d 1d86 17bd 8e5d 5cbe
000002d0: 03c9 9bbc 36fd 003e cb63 393c ad06 513e
000002e0: 2a55 093f 0511 9f3d 7599 eabc 965f f23e
000002f0: 9d76 983e c757 643d 3a8a da3d f573 823e
00000300: 9c2a 413e deef 79be c285 923c cac4 c0bc
00000310: 00f8 5abd c5cc 0cbf f16a b83e feda 94bc
00000320: 893d 87be 4326 f0bd cc06 dabb 1049 043c
00000330: 4f08 5c3d 96d6 bd3c 429c 5fbe 10bb 43bc
00000340: 90ed ad3e 4566 923e 9b0c d1bd 0729 993e
00000350: 0d15 543e e3b9 dd3e e3e1 02be face cbbe
00000360: 8730 ba3e d559 6d3e 0925 f0be e735 a83d
00000370: dfe1 d7bd 4a09 17be 9b1c 83be ee1e 8f3d
00000380: c25d 8d3d 31d4 a2be 2737 07be 11ce 4cbc
00000390: a064 2f3d 22c3 85be ffeb 0a3e be93 b13e
000003a0: 7e94 8b3a 59c1 243b 1f68 86be 6815 303d
000003b0: f313 9a3d 3b2e 583e d82a a8be 6b21 2ebc
000003c0: 0a49 dabd 11d1 763d 3915 203e e455 773d
000003d0: b26a b5be eba9 e53e 6f85 ff3d bb79 aa3d
000003e0: 3aef b03d 035a 6e3d 9d52 08bd 2d30 843e
000003f0: 7592 ecbd 43ed 953e d786 653d 2b31 513e
0.00685568 0.12494943 -0.43534487 -0.35524634 -0.06542157 0.007886813 -0.031570435 0.15329036
0.3911628 -0.3417927 -0.15109889 0.05705695 -0.19621389 0.11718466 0.027103584 -0.14933747
-0.4449271 0.050156176 0.0016512498 -0.40471688 -0.066436656 -0.04212697 0.022346377 0.16203392
0.2197993 0.55164474 -0.09248386 -0.17258598 -0.10177494 -0.40625125 0.12777232 0.23671897
-0.010769576 -0.03584287 0.014491295 -0.018412841 0.13030797 -0.088797376 0.19283621 -0.5615529
0.032251485 0.057504814 -0.13993867 0.07816452 0.08258836 0.25576815 0.29702267 0.5490753
-0.085717484 -0.30959752 0.15095079 -0.30766574 0.22054021 -0.23231903 0.21479523 0.04657016
0.1508514 0.001178943 0.107751995 0.08118864 -0.16046661 0.21481599 -0.013271182 -0.21720596
0.101400584 -0.12452556 0.3464597 -0.021289416 0.00037255493 0.23654942 0.087139264 0.023913763
-0.49441102 0.36218098 -0.24653871 0.01332303 0.23979263 0.02899139 0.13575844 0.3432961
0.45645812 -0.20790231 -0.11599329 -0.17490996 0.08691753 0.06207034 -0.0717299 -0.4557103
-0.2137298 -0.35076803 0.32157943 0.23519827 -0.02290112 0.10236556 0.25370616 -0.0009023706
-0.088675916 -0.194378 0.2019687 -0.053749576 -0.11299549 -0.036216516 0.0884677 0.06702975
0.044665195 -0.046715338 -0.28048906 -0.120070904 -0.064775914 0.058613613 -0.38041943 -0.16359913
0.10352121 0.23757741 0.37765968 0.23400286 -0.14898553 0.015524443 -0.09424304 0.22602996
-0.141646 0.01942447 -0.114247076 -0.20734046 -0.3132879 -0.064481944 -0.33468762 -0.08910867
-0.2022608 0.14849728 -0.45074278 0.030847704 -0.10744786 0.16434903 0.21593864 -0.09838368
-0.22313721 0.28672516 -0.41183063 0.23700929 -0.23862396 0.024511503 -0.06487837 0.27262446
-0.2581097 -0.4227754 0.44354758 0.044645984 -0.22280164 0.092135586 -0.04495203 0.07771909
0.32612827 0.3882985 0.12287403 0.13247204 0.10895715 -0.077894665 -0.1864067 0.16958337
-0.04403156 -0.15399837 -0.1678515 -0.26778468 -0.25574848 0.11480621 0.012036086 -0.18279436
-0.05481487 0.0228581 0.63128537 -0.116473995 -0.10026929 0.07452293 -0.3710782 0.21388547
0.05285234 0.03744972 -0.036993135 -0.21520063 -0.019016748 0.12596592 0.011315296 0.20412703
0.53645575 0.07766918 -0.028637627 0.4733855 0.29777995 0.055747773 0.10670896 0.25479093
0.1886391 -0.24407908 0.017886046 -0.023531336 -0.053459167 -0.54999954 0.3601909 -0.01817083
-0.26414135 -0.11726048 -0.0066536423 0.00807406 0.05371886 0.023173612 -0.21836951 -0.011946455
0.33970308 0.2859365 -0.102074824 0.29914114 0.20711155 0.43305883 -0.12781481 -0.39806348
0.36365148 0.231788 -0.46903256 0.08213406 -0.10541128 -0.14749637 -0.25607762 0.06988321
0.069026485 -0.31802514 -0.13204633 -0.012500302 0.042820573 -0.26125437 0.13566588 0.3468303
0.0010649113 0.0025139658 -0.26251313 0.042989165 0.07523336 0.21111386 -0.32845187 -0.010628085
-0.10658462 0.060257975 0.15633096 0.060384646 -0.35432965 0.448562 0.12476622 0.083239995
0.08639379 0.05819131 -0.03328191 0.25818005 -0.11551372 0.2928258 0.056036796 0.20428912

l3.bias f4 [10]
00000000: 3079 cfbd 3f69 263e d93c b23d 6605 16bd
00000010: 1eae ec3d 1053 ac3e e105 debd ebe7 533d
00000020: 090b e5be 6d2d de3d
-0.101305366 0.16251086 0.08703012 -0.036626242 0.11556648 0.33657122 -0.10840965 0.051734846
-0.44734982 0.10848508
