lightning_logs/version_1/checkpoints/epoch=9-step=18750.ckpt (torch, 225043 bytes, 6 tensors)

l1.weight f4 [64, 784]
-0.017937124 0.012406826 0.01758042 0.029186036 -0.0101534 0.008840527 -0.018836869 -0.033238765
0.03308249 -0.022708438 -0.02673176 -0.030370602 -0.004980507 0.015296973 0.014744602 -0.0211792
-0.011689894 -0.016125267 -0.005447328 0.008185424 0.008297272 0.01905983 0.021426097 -0.0213755
0.026298031 -0.026899006 0.013537854 -0.0014054999 -0.03464858 -0.0062146615 -0.033499416 -0.01936973
-0.02117996 0.007546023 -0.014301354 0.027033672 -0.004726346 -0.017249562 -0.0079158265 -0.024865022
-0.029186334 -0.026025737 -0.008816519 0.013911479 0.021107545 -0.03436343 -0.017311934 -0.017564978
-0.008472743 0.015444796 0.019358104 0.002769158 0.0156164095 -0.028566405 0.018786531 0.017938007
0.021707915 -0.0028789826 0.011507656 -0.021520935 -0.009914678 0.033400472 -0.012678857 -0.029725958
0.0049082567 0.0018160112 -0.032203212 -0.009195485 0.016485333 0.040748734 0.035545766 0.034316268
0.02195638 0.014580399 0.0031733464 0.02222926 0.006840075 -0.028953867 0.018055363 -0.019197466
-0.00559666 0.015126265 0.034823183 -0.008023096 0.0018026009 -0.007843418 0.00035755892 -0.03026376
0.024785105 0.013787924 0.020902976 -0.0010945747 -0.0075889328 -0.016530823 -0.03083458 -0.06954296
0.021118557 0.030778226 0.095903 0.07764128 0.05043485 0.030091248 -0.013413052 -0.028820686
-0.003869312 -0.029745065 0.015685843 -0.013619682 -0.030396033 0.032925453 -0.008505589 -0.01713113
-0.006870849 0.014732825 -0.017281733 -0.025768774 -0.021376511 0.029025942 0.026980765 -0.044252586
-0.04790098 -0.0050898157 -0.037815705 0.020262958 0.079031244 0.06088618 0.09000295 0.13222356
0.02622501 -0.05100291 -0.031378288 -0.052067064 -0.06265862 -0.042102996 -0.010759767 -0.07231443
-0.012044492 -0.025218211 -0.014763905 0.00520334 -0.014801605 -0.025341775 -0.010783848 0.029216837
0.031087946 0.034476086 0.017740965 -0.060775433 -0.0391649 0.020278625 -0.015615567 -0.036383472
0.04631011 0.0925703 0.031057402 0.040853135 -0.0018528113 -0.006422378 0.093236305 0.10058387
-0.00930853 -0.033564128 -0.029408474 -0.011230902 -0.07175058 -0.030291103 0.024106104 -0.017827047
-0.004071884 0.008266999 -0.021429066 0.029434105 -0.0038225565 0.004617751 -0.015332453 -0.043931138
-0.026174342 -0.044220034 -0.03363334 0.02782738 0.051464133 0.056764286 0.013692809 0.009181441
0.025166847 -0.11333985 -0.021395436 -0.038328443 0.024435038 -0.018551353 -0.054629765 -0.07086141
-0.030699428 0.037240252 0.011082413 0.021607576 0.0049812286 0.0011581628 0.01776503 -0.023177726
-0.014669782 -0.003347209 0.084311195 0.08946376 0.0127960825 0.028391078 0.034389507 0.057397407
0.052387316 -0.026276173 0.08597366 -0.014345752 0.0145888785 -0.04309136 -0.06542126 -0.035318274
0.027390607 -0.016497675 -0.067081526 -0.0006507709 0.004885491 -0.0037840544 -0.036169555 0.02195475
0.014510188 0.005818109 0.044596344 0.0012661073 -0.0101256715 0.049785446 0.015619535 -0.031492203
0.016914217 0.015697246 0.008577906 0.0035465148 0.020789536 0.0107616205 -0.024200479 0.07433243
-0.056322835 -0.03964921 -0.047275744 -0.008318565 0.076045886 0.08086081 -0.013191603 -0.025076095
0.008102224 -0.011342842 -0.0053887465 -0.007810635 -0.017482905 -0.0041426155 0.035653863 0.015327311
00000000: e0f0 92bc 0046 4b3c d004 903c 8e17 ef3c
00000010: 725a 26bc dcd7 103c c74f 9abc 5f25 08bd
00000020: 8181 073d 0c07 babc 90fc dabc c5cb f8bc
00000030: 8533 a3bb 28a0 7a3c 5893 713c 0080 adbc
00000040: f886 3fbc 2319 84bc 807f b2bb 281c 063c
00000050: 48f1 073c 5c23 9c3c c885 af3c ac1b afbc
00000060: f86e d73c 4e5b dcbc e0cd 5d3c c038 b8ba
00000070: abeb 0dbd 5ca4 cbbb af36 09bd 45ad 9ebc
00000080: 9881 adbc a144 f73b 3a50 6abc b875 dd3c
00000090: 77df 9abb f44e 8dbc 62b1 01bc bbb1 cbbc
000000a0: 2e18 efbc ed33 d5bc 2973 10bc f9ec 633c
000000b0: bbe9 ac3c abc0 0cbd c2d1 8dbc 6ee4 8fbc
000000c0: 43d1 0abc 2b0c 7d3c e394 9e3c c37a 353b
000000d0: f8db 7f3c 1804 eabc 36e6 993c baf2 923c
000000e0: ccd4 b13c 50ad 3cbb 9c8a 3c3c ac4c b0bc
000000f0: 2c71 22bc efce 083d fbba 4fbc da83 f3bc
00000100: 71d5 a03b 3907 ee3a 84e7 03bd a9a8 16bc
00000110: 400c 873c 25e8 263d 7098 113d 378f 0c3d
00000120: dedd b33c a0e2 6e3c ebf7 4f3b 231a b63c
00000130: b522 e03b a930 edbc d7e8 933c 0144 9dbc
00000140: 3064 b7bb 27d4 773c c1a2 0e3d 4e73 03bc
00000150: 4045 ec3a ae81 00bc bf76 bb39 b4eb f7bc
00000160: 220a cb3c bfe6 613c b83c ab3c d577 8fba
00000170: 95ac f8bb a66b 87bc cd98 fcbc 8a6c 8ebd
00000180: d300 ad3c 9e22 fc3c cb68 c43d 6402 9f3d
00000190: c694 4e3d ec81 f63c 6bc2 5bbc 5c19 ecbc
000001a0: 4894 7dbb ecab f3bc 997f 803c 1625 5fbc
000001b0: 1a01 f9bc d7dc 063d 075b 0bbc 9556 8cbc
000001c0: dc24 e1bb f261 713c 6c92 8dbc 0919 d3bc
000001d0: cb1d afbc d0c7 ed3c c406 dd3c 3342 35bd
000001e0: d133 44bd 78c8 a6bb a4e4 1abd 81fe a53c
000001f0: 22db a13d c963 793d 7753 b83d 9d65 073e
00000200: d5d5 d63c 6de8 50bd 8586 00bd 4644 55bd
00000210: 2a53 80bd 3174 2cbd bc49 30bc 9619 94bd
00000220: 4356 45bc 6c96 cebc 4ee4 71bc c880 aa3b
00000230: 6e82 72bc 8e99 cfbc bdae 30bc 2658 ef3c
00000240: 26ac fe3c cc36 0d3d 8055 913c a9ef 78bd
00000250: 606b 20bd 5c1f a63c 6fd8 7fbc d606 15bd
00000260: abaf 3d3d 7f95 bd3d 186c fe3c 9e55 273d
00000270: 08da f2ba d072 d2bb adf2 be3d ebfe cd3d
00000280: ce82 18bc 8a7a 09bd 0aea f0bc d101 38bc
00000290: f8f1 92bd 0c25 f8bc 2a7a c53c 070a 92bc
000002a0: 706d 85bb 4f72 073c 028c afbc cb1f f13c
000002b0: db83 7abb 8150 973b f834 7bbc 23f1 33bd
000002c0: 936b d6bc 1120 35bd 1dc3 09bd 3ff6 e33c
000002d0: 0ecc 523d ab81 683d ce57 603c c16d 163c
000002e0: b42a ce3c b91e e8bd 7b45 afbc 49fe 1cbd
000002f0: fd2b c83c 02f9 97bc 76c3 5fbd c91f 91bd
00000300: 5e7d fbbc 3c89 183d 0293 353c 5f02 b13c
00000310: 9339 a33b 7fcd 973a f887 913c 37df bdbc
00000320: 8659 70bc d95c 5bbb 59ab ac3d c738 b73d
00000330: a9a6 513c 6894 e83c 03dc 0c3d 8b19 6b3d
00000340: 1594 563d 2141 d7bc f512 b03d 720a 6bbc
00000350: 3106 6f3c 9180 30bd 95fb 85bd e5a9 10bd
00000360: 4462 e03c 2226 87bc 0a62 89bd 7f98 2aba
00000370: 7816 a03b e6fd 77bb 8726 14bd 73da b33c
00000380: 24bc 6d3c d6a5 be3b a8aa 363d 83f3 a53a
00000390: 25e6 25bc d3eb 4b3d 14e9 7f3c f8fd 00bd
000003a0: af8f 8a3c 8397 803c 588a 0c3c a56c 683b
000003b0: d14e aa3c 8251 303c 1540 c6bc 9a3b 983d
000003c0: c6b2 66bd 3667 22bd 36a4 41bd 974a 08bc
000003d0: f2bd 9b3d 5a9a a53d 9821 58bc 626c cdbc
000003e0: 31bf 043c 54d7 39bc 1594 b0bb 5bf0 ffbb
000003f0: 4f38 8fbc c7be 87bb c909 123d 671f 7b3c

l1.bias f4 [64]
-0.16497949 0.073815055 -0.019462205 -0.0030527283 0.10962158 0.013120301 0.1612771 -0.14842007
0.109163634 0.03320755 -0.03912228 -0.04339944 0.171361 0.1966844 0.08333021 0.0035508028
0.09265307 -0.12944746 0.08564998 -0.04190761 0.046319775 0.064640686 0.006383549 0.07252368
-0.0023180163 0.4199288 0.08383596 -0.045811817 0.11682206 0.09355472 -0.09840682 -0.08192708
-0.11426547 0.07612275 0.0022995323 -0.12291681 0.059279323 -0.1191091 -0.009737158 0.115145765
-0.11907826 0.13106245 0.12759365 0.1995117 0.046183243 0.081291616 -0.044408165 0.33587825
-0.0640418 -0.036589634 0.011745386 0.06950186 0.021733372 -0.10057051 0.17108202 0.011071068
0.17666449 0.04918399 0.10598567 0.09266857 -0.25509977 -0.022156404 0.06610206 0.015645884
00000000: 62f0 28be 592c 973d 346f 9fbc 4810 48bb
00000010: 4781 e03d 88f6 563c d325 253e 6efb 17be
00000020: 2f91 df3d a404 083d af3e 20bd 9cc3 31bd
00000030: 4279 2f3e a367 493e 07a9 aa3d 96b4 683b
00000040: e5c0 bd3d e08d 04be 4269 af3d 50a7 2bbd
00000050: ceb9 3d3d 5662 843d 172d d13b 4c87 943d
00000060: dce9 17bb e800 d73e 30b2 ab3d 2ca5 3bbd
00000070: 6740 ef3d 9e99 bf3d 8489 c9bd 63c9 a7bd
00000080: 0404 eabd 3fe6 9b3d c0b3 163b cfbb fbbd
00000090: e0ce 723d 79ef f3bd 9a88 1fbc 8bd1 eb3d
000000a0: 4edf f3bd 3c35 063e e9a7 023e cc4c 4c3e
000000b0: a42a 3d3d 387c a63d 56e5 35bd 3cf8 ab3e
000000c0: 5928 83bd 03df 15bd b86f 403c fe56 8e3d
000000d0: 2f0a b23c e9f7 cdbd 2030 2f3e 6d63 353c
000000e0: 89e7 343e 2775 493d 040f d93d 05c9 bd3d
000000f0: 709c 82be 5981 b5bc 8460 873d cc2b 803c

l2.weight f4 [64, 64]
0.033393547 -0.041296504 0.066942215 0.04453678 0.05744829 -0.027061988 -0.07484719 -0.06026246
0.039273627 0.07596983 -0.11659781 -0.057633877 -0.0887151 0.047027647 -0.04821287 0.062090885
-0.00010544001 -0.04129879 0.065883815 0.064769335 -0.028518831 -0.03957645 -0.05727746 0.022416506
0.05799555 0.0055681607 -0.03048371 0.11784687 -0.097928055 -0.017107885 0.07251545 0.11689487
0.02610251 -0.009309978 0.03133815 0.08580132 0.03381049 -0.08013551 0.0022240623 -0.015961569
-0.01621522 -0.117245555 -0.027543666 -0.0845842 -0.085698515 0.056999814 -0.093970254 -0.010503617
0.087062165 -0.008213511 -0.07099692 0.096375614 0.09837181 -0.06922472 -0.017765077 -0.037035733
-0.008996996 0.017847579 -0.09326905 0.078118004 -0.047245253 0.11743938 -0.09236451 -0.021464003
-0.30009624 0.2389868 -0.33022463 -0.04346997 0.18878849 -0.3286976 0.057400264 -0.1745156
-0.1595128 -0.030771928 -0.39504787 -0.04165631 0.14051104 0.044665143 -0.015497489 -0.06182887
-0.0136677055 -0.32990453 -0.24990506 -0.08531897 -0.016815893 0.095442995 -0.07122752 0.024938082
0.18028948 0.10913397 -0.3611167 0.2545131 0.41998988 0.18965752 -0.10279521 -0.15286887
-0.05510756 -0.032482643 0.120527074 0.43165493 0.53267115 -0.2880413 0.020994099 -0.1525548
0.08525202 0.037795883 0.17812994 0.011070161 0.26084915 -0.43106785 0.07418821 0.42285857
-0.073851585 -0.044449776 0.24713144 -0.25278524 0.10638616 -0.20016861 -0.05005335 0.10856622
0.32579452 0.23427716 0.13262063 -0.26514068 -0.24267161 -0.52064884 -0.19222505 0.11553406
0.2757876 -0.095888175 0.2746706 -0.030480659 0.051862 0.22829282 0.06864243 -0.023269558
0.21493265 -0.06451889 0.2981996 0.024358964 -0.07554243 -0.09620237 0.33564034 0.23706894
-0.22550215 0.29354295 -0.07267189 0.195094 0.006986247 -0.121998444 -0.036623 -0.27467552
0.16812766 -0.031070715 0.18237157 0.049049668 -0.39791995 -0.19673264 0.23005007 0.095890254
0.01121605 0.22772352 -0.0007031633 -0.070060685 -0.29836032 0.2824896 0.15010436 0.12227483
-0.19073062 -0.15888985 0.084568635 0.022801973 -0.27650434 0.28071362 -0.015655883 -0.19689311
0.34521818 -0.032037973 -0.070007354 0.17751683 0.022796813 0.21965118 0.08071906 0.1767706
-0.17273702 0.09353034 0.09231851 0.2259857 0.18007486 0.28891653 0.13732243 -0.011610635
-0.10735599 -0.046025146 -0.034189887 -0.049842175 0.059649024 0.20967434 0.017155224 0.07860249
0.07775868 0.106838934 0.032746688 -0.1944751 0.04489833 0.055835772 -0.04124622 0.11668794
0.17183124 0.2586063 0.08950199 0.210976 -0.014298845 -0.095871225 -0.087343365 -0.07483776
-0.015449252 0.0007891208 0.3061214 -0.14722525 -0.16874997 0.099421784 -0.24309689 -0.060607597
-0.011649657 0.11280671 -0.3860816 -0.122006655 -0.076620124 -0.030468207 -0.14289969 -0.02704178
0.1901049 -0.102122955 0.2236959 0.08097232 -0.11125687 0.20342667 0.10612758 -0.07774865
-0.15362728 0.118150875 0.060556937 0.2155439 0.01994869 -0.061819438 0.109329194 -0.23513521
-0.15942326 0.025244584 0.10977832 -0.05898761 0.13080822 0.10861998 -0.003278851 0.028235896
00000000: acc7 083d 8626 29bd 0019 893d 336c 363d
00000010: e64e 6b3d 1ab1 ddbc 7c49 99bd c5d5 76bd
00000020: 62dd 203d 1296 9b3d d5ca eebd 8011 6cbd
00000030: 43b0 b5bd 10a0 403d dc7a 45bd 0353 7e3d
00000040: ad1f ddb8 ec28 29bd 18ee 863d c9a5 843d
00000050: 53a0 e9bc ea1a 22bd c59b 6abd d2a2 b73c
00000060: be8c 6d3d 1e75 b63b f9b8 f9bc b359 f13d
00000070: 818e c8bd d625 8cbc fb82 943d 9466 ef3d
00000080: eed4 d53c e188 18bc 6f5c 003d 9ab8 af3d
00000090: de7c 0a3d 161e a4bd 93c1 113b d6c1 82bc
000000a0: c8d5 84bc 701e f0bd 41a3 e1bc 7b3a adbd
000000b0: b482 afbd a378 693d 7a73 c0bd 5d17 2cbc
000000c0: a64d b23d f691 06bc d566 91bd 9460 c53d
000000d0: 2977 c93d b1c5 8dbd 1188 91bc c8b2 17bd
000000e0: 2368 13bc 1635 923c d803 bfbd 55fc 9f3d
000000f0: 3d84 41bd 0f84 f03d 9b29 bdbd 47d5 afbc
00000100: 37a6 99be f5b8 743e 3413 a9be 910d 32bd
00000110: c551 413e 0d4b a8be 8a1c 6b3d 38b4 32be
00000120: 5357 23be 6915 fcbc b743 cabe cf9f 2abd
00000130: 20e2 0f3e ccf2 363d 2ee9 7dbc 4540 7dbd
00000140: 83ee 5fbc 3fe9 a8be 1de7 7fbe b6bb aebd
00000150: 7cc1 89bc 9e77 c33d bcdf 91bd f34a cc3c
00000160: ce9d 383e a281 df3d 4ae4 b8be 8b4f 823e
00000170: ea08 d73e 9535 423e 4c86 d2bd a889 1cbe
00000180: 77b8 61bd 850c 05bd e6d6 f63d e001 dd3e
00000190: 235d 083f 267a 93be d1fb ab3c 5337 1cbe
000001a0: 9c98 ae3d dbcf 1a3d b267 363e 9f5f 353c
000001b0: 058e 853e edb4 dcbe fdef 973d eb80 d83e
000001c0: 803f 97bd f810 36bd 0610 7d3e 116d 81be
000001d0: fde0 d93d 00f9 4cbe be04 4dbd f757 de3d
000001e0: 8ace a63e 5ae6 6f3e b4cd 073e 85c0 87be
000001f0: e87e 78be 3e49 05bf a5d6 44be 1f9d ec3d
00000200: 0834 8d3e 0561 c4bd a0a1 8c3e 93b2 f9bc
00000210: 406d 543d 98c5 693e 6794 8c3d cd9f bebc
00000220: 4e17 5c3e 7b22 84bd 9ead 983e 738c c73c
00000230: fdb5 9abd c005 c5bd 0dd9 ab3e 33c2 723e
00000240: 09ea 66be 434b 963e 00d5 94bd b9c6 473e
00000250: e3ec e43b 52da f9bd 0002 16bd 45a2 8cbe
00000260: a829 2c3e 0388 febc 9dbf 3a3e 4ee8 483d
00000270: 2abc cbbe 4874 49be 3f92 6b3e 1c62 c43d
00000280: 86c3 373c 5b30 693e 7e54 38ba fa7b 8fbd
00000290: afc2 98be 7aa2 903e f5b4 193e 3a6b fa3d
000002a0: e34e 43be 05b4 22be 5232 ad3d 34cb ba3c
000002b0: fa91 8dbe b2b9 8f3e c440 80bc 599e 49be
000002c0: 70c0 b03e 403a 03bd 0460 8fbd f9c6 353e
000002d0: 62c0 ba3c 3dec 603e 0950 a53d 5a03 353e
000002e0: f9e1 30be d68c bf3d 7d11 bd3d cc68 673e
000002f0: 8b65 383e deec 933e 409e 0c3e 883a 3ebc
00000300: 75dd dbbd dd84 3cbd b20a 0cbd 4f27 4cbd
00000310: 8952 743d dfb4 563e 1d89 8c3c 58fa a03d
00000320: f13f 9f3d 5fce da3d 6421 063d 7b24 47be
00000330: 50e7 373d 0db4 643d ccf1 28bd 16fa ee3d
00000340: 87f4 2f3e 0c68 843e d24c b73d 180a 583e
00000350: b445 6abc 2258 c4bd 14e1 b2bd 8a44 99bd
00000360: dc1e 7dbc 00dd 4e3a f2bb 9c3e 37c2 16be
00000370: cbcc 2cbe a69d cb3d 64ee 78be ac3f 78bd
00000380: 34de 3ebc 3407 e73d 7dac c5be a0de f9bd
00000390: 03eb 9cbd 7698 f9bc 4c54 12be b986 ddbc
000003a0: dcaa 423e d725 d1bd 8a10 653e d1d4 a53d
000003b0: a4da e3bd 154f 503e 6b59 d93d af3a 9fbd
000003c0: 7850 1dbe 16f9 f13d 8d0a 783d 8ab7 5c3e
000003d0: 6f6b a33c 6136 7dbd fce7 df3d 49c7 70be
000003e0: da3f 23be bbcd ce3c 75d3 e03d fe9c 71bd
000003f0: 97f2 053e 2774 de3d fee1 56bb f74e e73c

l2.bias f4 [64]
-0.08706308 0.18020068 0.103404365 -0.06149176 -0.017658852 0.05165368 0.056445196 -0.05500237
-0.03128535 0.054991003 -0.0077274055 0.0004446684 -0.024146294 -0.0286913 0.041639272 -0.15636392
0.06008647 0.10862197 0.078089744 0.139832 -0.05138271 -0.0032054242 0.05272973 -0.02271238
0.0990298 0.12016878 -0.093227535 0.32180348 -0.08109193 0.1020645 0.051752977 0.10205164
0.05647622 0.08285631 0.088411145 -0.06076092 0.046088852 -0.020925932 0.35359785 0.1632889
0.1257418 0.12302489 -0.1313045 -0.109361306 0.17506477 0.084078625 -0.059386812 0.17718975
0.124486014 -0.10402157 0.08390499 0.13497828 0.18424611 0.05799129 0.068601705 -0.07326395
-0.017847812 0.07050641 0.20083229 0.0040697386 -0.04424451 0.17702283 -0.05281001 0.09504641
00000000: 214e b2bd 8786 383e abc5 d33d c9de 7bbd
00000010: 4ca9 90bc cf92 533d 1433 673d 2a4a 61bd
00000020: 1125 00bd 3f3e 613d 2d36 fdbb 6222 e939
00000030: 73ce c5bc 040a ebbc f18d 2a3d dd1d 20be
00000040: 3b1d 763d 3275 de3d 84ed 9f3d 1f30 0f3e
00000050: ad76 52bd 1812 52bb 21fb 573d 500f babc
00000060: 23d0 ca3d 0d1b f63d 14ee bebd 6dc3 a43e
00000070: 8713 a6bd 3107 d13d eefa 533d 7300 d13d
00000080: 9c53 673d 92b0 a93d e710 b53d 71e0 78bd
00000090: aac7 3c3d dc6c abbc c70a b53e 3535 273e
000000a0: 75c2 003e 79f4 fb3d b074 06be d2f8 dfbd
000000b0: 2e44 333e 6a31 ac3d 963f 73bd 3b71 353e
000000c0: 86f2 fe3d 4309 d5bd 61d6 ab3d bf37 0a3e
000000d0: 03ab 3c3e 4688 6d3d 0d7f 8c3d 690b 96bd
000000e0: 9335 92bc aa65 903d fba6 4d3e 715b 853b
000000f0: bb39 35bd 7945 353e 4f4f 58bd b1a7 c23d

l3.weight f4 [10, 64]
-0.105430774 0.027954347 -0.10405919 -0.12702195 0.20211145 0.24269587 0.14368662 0.05068867
0.023055159 -0.045034952 0.0981216 0.082736455 -0.32939315 -0.14368181 -0.04292344 0.057836093
0.62124807 0.84562516 0.16872819 0.58611274 -0.17254257 0.024870371 0.37371236 -0.304565
-0.41496855 -0.72650826 0.2061633 -0.551999 0.6234814 0.24832565 0.23653916 -0.05059
-0.22133766 -0.053213384 -0.43953565 0.3045893 -0.04216996 0.08608049 -0.3796221 -0.68316406
-0.35864818 -0.49930295 0.2515817 0.101414256 0.4922084 0.29217234 0.609186 0.019911444
0.07487461 0.64557445 0.5812604 -0.61477244 0.29842374 -0.42933238 -0.31725532 -0.01933094
-0.35086635 0.31914616 -0.430765 -0.1700567 0.16805252 0.035645243 0.10766411 0.013012559
0.034641832 -0.69211346 0.5556334 -0.08979554 -0.21307687 -0.06418707 -0.16650742 0.10009694
-0.013195708 0.020291401 -0.116141826 -0.5682408 -0.4183205 0.06662392 0.4893776 0.062072758
0.26053938 -0.14907408 -0.046370577 -0.13951872 -0.35123783 0.1856007 -0.6423005 -0.3633753
0.35143632 0.3710962 -0.04605872 0.34011316 -0.7706763 0.236529 0.46721673 -0.11756063
-0.45976245 -0.0044033215 -0.6286039 0.09119832 -0.015950238 0.22547457 0.3614459 0.5042383
0.33059868 0.78898406 0.17211281 0.111636296 -0.26229596 0.4472561 -0.09151514 0.1252727
0.039259985 -0.2846394 -0.5656851 -0.18560024 -0.37484673 -0.19818966 0.011788527 0.04704011
0.9129372 0.2116931 0.67453426 0.128993 -0.006520738 -0.08857618 -0.17713758 0.10683358
-0.00075281056 -0.3300628 -0.13750824 0.105695985 1.0305251 0.005632745 -0.04265232 -0.04210311
-0.06519884 0.5220342 0.19344161 -0.06662955 -0.0011806194 0.53571063 -0.14057636 -0.23215045
-0.5087792 0.07612012 -0.41049618 0.18504529 -0.58582383 -0.23533943 0.722118 -0.2848974
0.0942165 -0.4571471 0.3014845 -0.26357675 -0.09524632 0.52986073 0.38335574 -0.122672826
-0.19941294 0.597337 -0.76340103 -0.33594018 0.06072113 -0.16784075 0.38862988 0.97678614
-1.03018 -0.51942146 0.2989662 0.19289961 0.06037188 -0.24625523 -0.25740638 -0.37536484
0.12426195 -0.12625018 0.14134559 0.41172734 0.75020885 -0.1394182 0.16804533 -0.45242506
0.7729513 0.32116812 0.119885236 0.2594397 0.13515174 -0.83487034 0.21026063 -0.12313741
-0.12653367 -0.674068 0.7883734 0.4416618 0.72397447 -0.21179406 -0.13912444 0.06402173
0.027623348 0.46445802 -0.2560008 0.2782109 -0.12008334 0.28202736 -0.10436844 0.06647806
0.17451717 -0.42891893 -0.19357705 -0.9581451 0.28711388 0.31848413 0.12788779 0.27524927
0.39127257 0.2450327 0.1714655 -0.7496192 0.12997644 0.051776838 -0.9103644 0.103495106
0.7875634 -0.5569128 -0.27601346 0.24593213 0.09002839 -0.14657155 -0.972704 -0.1202329
0.28534523 0.83654076 0.3827913 -0.1648821 -0.4103469 -0.34444267 0.31915593 -0.6409522
-0.37122366 0.39571857 -0.14571688 -0.87682533 0.32571712 -0.04578858 0.24260637 0.03011169
0.47845381 -0.5928795 0.17798413 -0.024441853 -0.093157925 -0.2607642 -0.16904548 -0.0191229
00000000: 17ec d7bd 8400 e53c fc1c d5bd 0b12 02be
00000010: 4ef6 4e3e 4485 783e 9622 133e ec9e 4f3d
00000020: 2cde bc3c 9276 38bd faf3 c83d bb71 a93d
00000030: 38a6 a8be 5321 13be 7dd0 2fbd 8ae5 6c3d
00000040: 1d0a 1f3f e47a 583f 15c7 2c3e 7c0b 163f
00000050: 00af 30be f3bc cb3c 3a57 bf3e f2ef 9bbe
00000060: c276 d4be 72fc 39bf 791c 533e ce4f 0dbf
00000070: 7a9c 1f3f 1449 7e3e 5237 723e 7637 4fbd
00000080: 57a6 62be 47f6 59bd d10a e1be 21f3 9b3e
00000090: 68ba 2cbd f84a b03d d45d c2be d7e3 2ebf
000000a0: bca0 b7be a3a4 ffbe 51cf 803e 47b2 cf3d
000000b0: bd02 fc3e 9d97 953e 9df3 1b3f 531d a33c
000000c0: dc57 993d 5e44 253f 7bcd 143f ba61 1dbf
000000d0: ffca 983e 74d1 dbbe 4a6f a2be eb5b 9ebc
000000e0: c1a4 b3be 2067 a33e 3b8d dcbe 5823 2ebe
000000f0: f615 2c3e bf00 123d 007f dc3d a132 553c
00000100: 98e4 0d3d 592e 31bf fe3d 0e3f b9e6 b7bd
00000110: d330 5abe 8374 83bd ec80 2abe a0ff cc3d
00000120: d032 58bc 273a a63c c4db edbd 3b78 11bf
00000130: 1b2e d6be 1f72 883d b38f fa3e 0140 7e3d
00000140: 6b65 853e e0a6 18be 13ef 3dbd ffdd 0ebe
00000150: 72d5 b3be 1c0e 3e3e ce6d 24bf 540c babe
00000160: 76ef b33e 5200 be3e 12a8 3cbd 5023 ae3e
00000170: 0b4b 45bf a834 723e 0837 ef3e a1c3 f0bd
00000180: fc65 ebbe bd49 90bb 2fec 20bf 2fc6 ba3d
00000190: 13aa 82bc cee2 663e 700f b93e c315 013f
000001a0: 3b44 a93e dcfa 493f 573e 303e 92a1 e43d
000001b0: a84b 86be c0fe e43e 4a6c bbbd 7d47 003e
000001c0: 14cf 203d 41bc 91be bdd0 10bf fd0d 3ebe
000001d0: e9eb bfbe 3bf2 4abe aa24 413c 21ad 403d
000001e0: 41b6 693f 13c6 583e 47ae 2c3f be16 043e
000001f0: eaab d5bb 6e67 b5bd 8e63 35be 90cb da3d
00000200: 4358 45ba fefd a8be f6ce 0cbe 2377 d83d
00000210: 3fe8 833f e492 b83b 33b4 2ebd 5074 2cbd
00000220: f886 85bd 09a4 053f 8f15 463e 1375 88bd
00000230: 03bf 9aba 5524 093f 40f3 0fbe d9b8 6dbe
00000240: 5b3f 02bf dee4 9b3d 8e2c d2be 837c 3d3e
00000250: 8df8 15bf d2fc 70be badc 383f 12de 91be
00000260: 95f4 c03d 2f0f eabe 2d5c 9a3e 88f3 86be
00000270: 8110 c3bd f4a4 073f 3447 c43e e43b fbbd
00000280: e832 4cbe 14eb 183f 406e 43bf 5a00 acbe
00000290: b8b6 783d 72de 2bbe 7ffa c63e a80e 7a3f
000002a0: f0dc 83bf cef8 04bf 1912 993e 7a87 453e
000002b0: 8148 773d 552a 7cbe c5ca 83be d22f c0be
000002c0: 0d7d fe3d ba47 01be e6bc 103e edcd d23e
000002d0: b00d 403f a5c3 0ebe 1314 2c3e 42a4 e7be
000002e0: 23e0 453f 2670 a43e 6486 f53d 48d5 843e
000002f0: 3865 0a3e 10ba 55bf 904e 573e 772f fcbd
00000300: 0b92 01be b88f 2cbf d7d2 493f 7f21 e23e
00000310: 6456 393f 8be0 58be a376 0ebe d31d 833d
00000320: 5c4a e23c 71cd ed3e 8912 83be a971 8e3e
00000330: 41ee f5bd e465 903e 1fbf d5bd a625 883d
00000340: a1b4 323e 439b dbbe 1039 46be ff48 75bf
00000350: 9700 933e 5a10 a33e 04f5 023e 79ed 8c3e
00000360: e154 c83e dae9 7a3e a794 2f3e 0be7 3fbf
00000370: 8b18 053e f313 543d a40d 69bf 3ef5 d33d
00000380: c19d 493f d691 0ebf a351 8dbe a2d5 7b3e
00000390: ce60 b83d da16 16be 2103 79bf ab3c f6bd
000003a0: c518 923e 8927 563f 39fd c33e dad6 28be
000003b0: fd18 d2be ca5a b0be 6868 a33e 7215 24bf
000003c0: 0711 bebe a09b ca3e ce36 15be a077 60bf
000003d0: 65c4 a63e ce8c 3bbd ce6d 783e caac f63c
000003e0: e6f7 f43e f3c6 17bf 7941 363e 483a c8bc
000003f0: 95c9 bebd e382 85be 421a 2dbe a1a7 9cbc

l3.bias f4 [10]
-0.3036512 0.35881236 -0.057676684 -0.10067118 0.03417941 0.20423229 -0.0452403 0.06615858
-0.11952131 -0.029378861
00000000: 2c78 9bbe 41b6 b73e 633e 6cbd b12c cebd
00000010: b6ff 0b3d 4522 513e e54d 39bd 267e 873d
00000020: 97c7 f4bd f0ab f0bc
